#loc = loc(unknown)
module @jit_run_cnn {
  func.func public @main(%arg0: tensor<32x64x64x10xf32> {jax.arg_info = "batch", mhlo.sharding = "{replicated}"} loc(unknown)) -> (tensor<32x10xf32> {jax.result_info = ""}) {
    %0 = stablehlo.constant dense<0> : tensor<i32> loc(#loc)
    %1 = stablehlo.constant dense<32> : tensor<i32> loc(#loc16)
    %2 = stablehlo.shift_right_logical %0, %1 : tensor<i32> loc(#loc17)
    %3 = stablehlo.convert %2 : (tensor<i32>) -> tensor<ui32> loc(#loc18)
    %4 = stablehlo.reshape %3 : (tensor<ui32>) -> tensor<1xui32> loc(#loc19)
    %5 = stablehlo.constant dense<4294967295> : tensor<ui32> loc(#loc16)
    %6 = stablehlo.convert %5 : (tensor<ui32>) -> tensor<i32> loc(#loc20)
    %7 = stablehlo.and %0, %6 : tensor<i32> loc(#loc21)
    %8 = stablehlo.convert %7 : (tensor<i32>) -> tensor<ui32> loc(#loc18)
    %9 = stablehlo.reshape %8 : (tensor<ui32>) -> tensor<1xui32> loc(#loc19)
    %10 = stablehlo.concatenate %4, %9, dim = 0 : (tensor<1xui32>, tensor<1xui32>) -> tensor<2xui32> loc(#loc22)
    %11 = stablehlo.constant dense<1559354485> : tensor<ui32> loc(#loc)
    %12 = stablehlo.constant dense<32> : tensor<ui32> loc(#loc23)
    %13 = stablehlo.shift_right_logical %11, %12 : tensor<ui32> loc(#loc24)
    %14 = stablehlo.reshape %13 : (tensor<ui32>) -> tensor<1xui32> loc(#loc25)
    %15 = stablehlo.constant dense<4294967295> : tensor<ui32> loc(#loc23)
    %16 = stablehlo.and %11, %15 : tensor<ui32> loc(#loc26)
    %17 = stablehlo.reshape %16 : (tensor<ui32>) -> tensor<1xui32> loc(#loc25)
    %18 = stablehlo.concatenate %14, %17, dim = 0 : (tensor<1xui32>, tensor<1xui32>) -> tensor<2xui32> loc(#loc27)
    %19 = "stablehlo.slice"(%10) {limit_indices = dense<1> : tensor<1xi64>, start_indices = dense<0> : tensor<1xi64>, strides = dense<1> : tensor<1xi64>} : (tensor<2xui32>) -> tensor<1xui32> loc(#loc28)
    %20 = stablehlo.reshape %19 : (tensor<1xui32>) -> tensor<ui32> loc(#loc29)
    %21 = "stablehlo.slice"(%10) {limit_indices = dense<2> : tensor<1xi64>, start_indices = dense<1> : tensor<1xi64>, strides = dense<1> : tensor<1xi64>} : (tensor<2xui32>) -> tensor<1xui32> loc(#loc30)
    %22 = stablehlo.reshape %21 : (tensor<1xui32>) -> tensor<ui32> loc(#loc29)
    %23 = "stablehlo.slice"(%18) {limit_indices = dense<1> : tensor<1xi64>, start_indices = dense<0> : tensor<1xi64>, strides = dense<1> : tensor<1xi64>} : (tensor<2xui32>) -> tensor<1xui32> loc(#loc31)
    %24 = "stablehlo.slice"(%18) {limit_indices = dense<2> : tensor<1xi64>, start_indices = dense<1> : tensor<1xi64>, strides = dense<1> : tensor<1xi64>} : (tensor<2xui32>) -> tensor<1xui32> loc(#loc32)
    %25 = stablehlo.constant dense<[13, 15, 26, 6]> : tensor<4xui32> loc(#loc33)
    %26 = stablehlo.constant dense<[17, 29, 16, 24]> : tensor<4xui32> loc(#loc33)
    %27 = stablehlo.xor %20, %22 : tensor<ui32> loc(#loc34)
    %28 = stablehlo.constant dense<466688986> : tensor<ui32> loc(#loc33)
    %29 = stablehlo.xor %27, %28 : tensor<ui32> loc(#loc34)
    %30 = stablehlo.broadcast_in_dim %20, dims = [] : (tensor<ui32>) -> tensor<1xui32> loc(#loc35)
    %31 = stablehlo.add %23, %30 : tensor<1xui32> loc(#loc35)
    %32 = stablehlo.broadcast_in_dim %22, dims = [] : (tensor<ui32>) -> tensor<1xui32> loc(#loc35)
    %33 = stablehlo.add %24, %32 : tensor<1xui32> loc(#loc35)
    %34 = stablehlo.constant dense<0> : tensor<i32> loc(#loc33)
    %35 = stablehlo.constant dense<0> : tensor<i32> loc(#loc36)
    %36:9 = stablehlo.while(%iterArg = %35, %iterArg_0 = %34, %iterArg_1 = %31, %iterArg_2 = %33, %iterArg_3 = %22, %iterArg_4 = %29, %iterArg_5 = %20, %iterArg_6 = %25, %iterArg_7 = %26) : tensor<i32>, tensor<i32>, tensor<1xui32>, tensor<1xui32>, tensor<ui32>, tensor<ui32>, tensor<ui32>, tensor<4xui32>, tensor<4xui32>
     cond {
      %422 = stablehlo.constant dense<5> : tensor<i32> loc(#loc37)
      %423 = stablehlo.compare  LT, %iterArg, %422,  SIGNED : (tensor<i32>, tensor<i32>) -> tensor<i1> loc(#loc38)
      stablehlo.return %423 : tensor<i1> loc(#loc37)
    } do {
      %422 = stablehlo.constant dense<1> : tensor<i32> loc(#loc37)
      %423 = stablehlo.add %iterArg_0, %422 : tensor<i32> loc(#loc39)
      %424 = "stablehlo.slice"(%iterArg_6) {limit_indices = dense<1> : tensor<1xi64>, start_indices = dense<0> : tensor<1xi64>, strides = dense<1> : tensor<1xi64>} : (tensor<4xui32>) -> tensor<1xui32> loc(#loc40)
      %425 = stablehlo.reshape %424 : (tensor<1xui32>) -> tensor<ui32> loc(#loc41)
      %426 = stablehlo.add %iterArg_1, %iterArg_2 : tensor<1xui32> loc(#loc39)
      %427 = stablehlo.broadcast_in_dim %425, dims = [] : (tensor<ui32>) -> tensor<1xui32> loc(#loc42)
      %428 = stablehlo.shift_left %iterArg_2, %427 : tensor<1xui32> loc(#loc42)
      %429 = stablehlo.constant dense<32> : tensor<ui32> loc(#loc37)
      %430 = stablehlo.subtract %429, %425 : tensor<ui32> loc(#loc43)
      %431 = stablehlo.broadcast_in_dim %430, dims = [] : (tensor<ui32>) -> tensor<1xui32> loc(#loc44)
      %432 = stablehlo.shift_right_logical %iterArg_2, %431 : tensor<1xui32> loc(#loc44)
      %433 = stablehlo.or %428, %432 : tensor<1xui32> loc(#loc45)
      %434 = stablehlo.xor %426, %433 : tensor<1xui32> loc(#loc46)
      %435 = "stablehlo.slice"(%iterArg_6) {limit_indices = dense<2> : tensor<1xi64>, start_indices = dense<1> : tensor<1xi64>, strides = dense<1> : tensor<1xi64>} : (tensor<4xui32>) -> tensor<1xui32> loc(#loc47)
      %436 = stablehlo.reshape %435 : (tensor<1xui32>) -> tensor<ui32> loc(#loc41)
      %437 = stablehlo.add %426, %434 : tensor<1xui32> loc(#loc39)
      %438 = stablehlo.broadcast_in_dim %436, dims = [] : (tensor<ui32>) -> tensor<1xui32> loc(#loc42)
      %439 = stablehlo.shift_left %434, %438 : tensor<1xui32> loc(#loc42)
      %440 = stablehlo.constant dense<32> : tensor<ui32> loc(#loc37)
      %441 = stablehlo.subtract %440, %436 : tensor<ui32> loc(#loc43)
      %442 = stablehlo.broadcast_in_dim %441, dims = [] : (tensor<ui32>) -> tensor<1xui32> loc(#loc44)
      %443 = stablehlo.shift_right_logical %434, %442 : tensor<1xui32> loc(#loc44)
      %444 = stablehlo.or %439, %443 : tensor<1xui32> loc(#loc45)
      %445 = stablehlo.xor %437, %444 : tensor<1xui32> loc(#loc46)
      %446 = "stablehlo.slice"(%iterArg_6) {limit_indices = dense<3> : tensor<1xi64>, start_indices = dense<2> : tensor<1xi64>, strides = dense<1> : tensor<1xi64>} : (tensor<4xui32>) -> tensor<1xui32> loc(#loc48)
      %447 = stablehlo.reshape %446 : (tensor<1xui32>) -> tensor<ui32> loc(#loc41)
      %448 = stablehlo.add %437, %445 : tensor<1xui32> loc(#loc39)
      %449 = stablehlo.broadcast_in_dim %447, dims = [] : (tensor<ui32>) -> tensor<1xui32> loc(#loc42)
      %450 = stablehlo.shift_left %445, %449 : tensor<1xui32> loc(#loc42)
      %451 = stablehlo.constant dense<32> : tensor<ui32> loc(#loc37)
      %452 = stablehlo.subtract %451, %447 : tensor<ui32> loc(#loc43)
      %453 = stablehlo.broadcast_in_dim %452, dims = [] : (tensor<ui32>) -> tensor<1xui32> loc(#loc44)
      %454 = stablehlo.shift_right_logical %445, %453 : tensor<1xui32> loc(#loc44)
      %455 = stablehlo.or %450, %454 : tensor<1xui32> loc(#loc45)
      %456 = stablehlo.xor %448, %455 : tensor<1xui32> loc(#loc46)
      %457 = "stablehlo.slice"(%iterArg_6) {limit_indices = dense<4> : tensor<1xi64>, start_indices = dense<3> : tensor<1xi64>, strides = dense<1> : tensor<1xi64>} : (tensor<4xui32>) -> tensor<1xui32> loc(#loc49)
      %458 = stablehlo.reshape %457 : (tensor<1xui32>) -> tensor<ui32> loc(#loc41)
      %459 = stablehlo.add %448, %456 : tensor<1xui32> loc(#loc39)
      %460 = stablehlo.broadcast_in_dim %458, dims = [] : (tensor<ui32>) -> tensor<1xui32> loc(#loc42)
      %461 = stablehlo.shift_left %456, %460 : tensor<1xui32> loc(#loc42)
      %462 = stablehlo.constant dense<32> : tensor<ui32> loc(#loc37)
      %463 = stablehlo.subtract %462, %458 : tensor<ui32> loc(#loc43)
      %464 = stablehlo.broadcast_in_dim %463, dims = [] : (tensor<ui32>) -> tensor<1xui32> loc(#loc44)
      %465 = stablehlo.shift_right_logical %456, %464 : tensor<1xui32> loc(#loc44)
      %466 = stablehlo.or %461, %465 : tensor<1xui32> loc(#loc45)
      %467 = stablehlo.xor %459, %466 : tensor<1xui32> loc(#loc46)
      %468 = stablehlo.broadcast_in_dim %iterArg_3, dims = [] : (tensor<ui32>) -> tensor<1xui32> loc(#loc39)
      %469 = stablehlo.add %459, %468 : tensor<1xui32> loc(#loc39)
      %470 = stablehlo.broadcast_in_dim %iterArg_4, dims = [] : (tensor<ui32>) -> tensor<1xui32> loc(#loc39)
      %471 = stablehlo.add %467, %470 : tensor<1xui32> loc(#loc39)
      %472 = stablehlo.constant dense<1> : tensor<i32> loc(#loc37)
      %473 = stablehlo.add %iterArg_0, %472 : tensor<i32> loc(#loc39)
      %474 = stablehlo.convert %473 : (tensor<i32>) -> tensor<ui32> loc(#loc50)
      %475 = stablehlo.broadcast_in_dim %474, dims = [] : (tensor<ui32>) -> tensor<1xui32> loc(#loc39)
      %476 = stablehlo.add %471, %475 : tensor<1xui32> loc(#loc39)
      %477 = stablehlo.constant dense<1> : tensor<i32> loc(#loc37)
      %478 = stablehlo.add %iterArg, %477 : tensor<i32> loc(#loc39)
      stablehlo.return %478, %423, %469, %476, %iterArg_4, %iterArg_5, %iterArg_3, %iterArg_7, %iterArg_6 : tensor<i32>, tensor<i32>, tensor<1xui32>, tensor<1xui32>, tensor<ui32>, tensor<ui32>, tensor<ui32>, tensor<4xui32>, tensor<4xui32> loc(#loc37)
    } loc(#loc37)
    %37 = stablehlo.concatenate %36#2, %36#3, dim = 0 : (tensor<1xui32>, tensor<1xui32>) -> tensor<2xui32> loc(#loc27)
    %38 = stablehlo.constant dense<0.0111111114> : tensor<f32> loc(#loc)
    %39 = stablehlo.sqrt %38 : tensor<f32> loc(#loc51)
    %40 = stablehlo.constant dense<0.879625678> : tensor<f32> loc(#loc)
    %41 = stablehlo.divide %39, %40 : tensor<f32> loc(#loc52)
    %42 = stablehlo.constant dense<-2.000000e+00> : tensor<f32> loc(#loc)
    %43 = stablehlo.constant dense<1.41421354> : tensor<f32> loc(#loc)
    %44 = stablehlo.divide %42, %43 : tensor<f32> loc(#loc52)
    %45 = chlo.erf %44 : tensor<f32> -> tensor<f32> loc(#loc53)
    %46 = stablehlo.constant dense<2.000000e+00> : tensor<f32> loc(#loc)
    %47 = stablehlo.constant dense<1.41421354> : tensor<f32> loc(#loc)
    %48 = stablehlo.divide %46, %47 : tensor<f32> loc(#loc52)
    %49 = chlo.erf %48 : tensor<f32> -> tensor<f32> loc(#loc53)
    %50 = stablehlo.broadcast_in_dim %45, dims = [] : (tensor<f32>) -> tensor<1x1x1x1xf32> loc(#loc54)
    %51 = stablehlo.broadcast_in_dim %49, dims = [] : (tensor<f32>) -> tensor<1x1x1x1xf32> loc(#loc54)
    %52 = stablehlo.iota dim = 0 : tensor<2880xui32> loc(#loc55)
    %53 = "stablehlo.slice"(%37) {limit_indices = dense<1> : tensor<1xi64>, start_indices = dense<0> : tensor<1xi64>, strides = dense<1> : tensor<1xi64>} : (tensor<2xui32>) -> tensor<1xui32> loc(#loc56)
    %54 = stablehlo.reshape %53 : (tensor<1xui32>) -> tensor<ui32> loc(#loc57)
    %55 = "stablehlo.slice"(%37) {limit_indices = dense<2> : tensor<1xi64>, start_indices = dense<1> : tensor<1xi64>, strides = dense<1> : tensor<1xi64>} : (tensor<2xui32>) -> tensor<1xui32> loc(#loc58)
    %56 = stablehlo.reshape %55 : (tensor<1xui32>) -> tensor<ui32> loc(#loc57)
    %57 = "stablehlo.slice"(%52) {limit_indices = dense<1440> : tensor<1xi64>, start_indices = dense<0> : tensor<1xi64>, strides = dense<1> : tensor<1xi64>} : (tensor<2880xui32>) -> tensor<1440xui32> loc(#loc59)
    %58 = "stablehlo.slice"(%52) {limit_indices = dense<2880> : tensor<1xi64>, start_indices = dense<1440> : tensor<1xi64>, strides = dense<1> : tensor<1xi64>} : (tensor<2880xui32>) -> tensor<1440xui32> loc(#loc60)
    %59 = stablehlo.constant dense<[13, 15, 26, 6]> : tensor<4xui32> loc(#loc61)
    %60 = stablehlo.constant dense<[17, 29, 16, 24]> : tensor<4xui32> loc(#loc61)
    %61 = stablehlo.xor %54, %56 : tensor<ui32> loc(#loc34)
    %62 = stablehlo.constant dense<466688986> : tensor<ui32> loc(#loc61)
    %63 = stablehlo.xor %61, %62 : tensor<ui32> loc(#loc34)
    %64 = stablehlo.broadcast_in_dim %54, dims = [] : (tensor<ui32>) -> tensor<1440xui32> loc(#loc62)
    %65 = stablehlo.add %57, %64 : tensor<1440xui32> loc(#loc62)
    %66 = stablehlo.broadcast_in_dim %56, dims = [] : (tensor<ui32>) -> tensor<1440xui32> loc(#loc62)
    %67 = stablehlo.add %58, %66 : tensor<1440xui32> loc(#loc62)
    %68 = stablehlo.constant dense<0> : tensor<i32> loc(#loc61)
    %69 = stablehlo.constant dense<0> : tensor<i32> loc(#loc63)
    %70:9 = stablehlo.while(%iterArg = %69, %iterArg_0 = %68, %iterArg_1 = %65, %iterArg_2 = %67, %iterArg_3 = %56, %iterArg_4 = %63, %iterArg_5 = %54, %iterArg_6 = %59, %iterArg_7 = %60) : tensor<i32>, tensor<i32>, tensor<1440xui32>, tensor<1440xui32>, tensor<ui32>, tensor<ui32>, tensor<ui32>, tensor<4xui32>, tensor<4xui32>
     cond {
      %422 = stablehlo.constant dense<5> : tensor<i32> loc(#loc64)
      %423 = stablehlo.compare  LT, %iterArg, %422,  SIGNED : (tensor<i32>, tensor<i32>) -> tensor<i1> loc(#loc38)
      stablehlo.return %423 : tensor<i1> loc(#loc64)
    } do {
      %422 = stablehlo.constant dense<1> : tensor<i32> loc(#loc64)
      %423 = stablehlo.add %iterArg_0, %422 : tensor<i32> loc(#loc39)
      %424 = "stablehlo.slice"(%iterArg_6) {limit_indices = dense<1> : tensor<1xi64>, start_indices = dense<0> : tensor<1xi64>, strides = dense<1> : tensor<1xi64>} : (tensor<4xui32>) -> tensor<1xui32> loc(#loc65)
      %425 = stablehlo.reshape %424 : (tensor<1xui32>) -> tensor<ui32> loc(#loc66)
      %426 = stablehlo.add %iterArg_1, %iterArg_2 : tensor<1440xui32> loc(#loc67)
      %427 = stablehlo.broadcast_in_dim %425, dims = [] : (tensor<ui32>) -> tensor<1440xui32> loc(#loc68)
      %428 = stablehlo.shift_left %iterArg_2, %427 : tensor<1440xui32> loc(#loc68)
      %429 = stablehlo.constant dense<32> : tensor<ui32> loc(#loc64)
      %430 = stablehlo.subtract %429, %425 : tensor<ui32> loc(#loc43)
      %431 = stablehlo.broadcast_in_dim %430, dims = [] : (tensor<ui32>) -> tensor<1440xui32> loc(#loc69)
      %432 = stablehlo.shift_right_logical %iterArg_2, %431 : tensor<1440xui32> loc(#loc69)
      %433 = stablehlo.or %428, %432 : tensor<1440xui32> loc(#loc70)
      %434 = stablehlo.xor %426, %433 : tensor<1440xui32> loc(#loc71)
      %435 = "stablehlo.slice"(%iterArg_6) {limit_indices = dense<2> : tensor<1xi64>, start_indices = dense<1> : tensor<1xi64>, strides = dense<1> : tensor<1xi64>} : (tensor<4xui32>) -> tensor<1xui32> loc(#loc72)
      %436 = stablehlo.reshape %435 : (tensor<1xui32>) -> tensor<ui32> loc(#loc66)
      %437 = stablehlo.add %426, %434 : tensor<1440xui32> loc(#loc67)
      %438 = stablehlo.broadcast_in_dim %436, dims = [] : (tensor<ui32>) -> tensor<1440xui32> loc(#loc68)
      %439 = stablehlo.shift_left %434, %438 : tensor<1440xui32> loc(#loc68)
      %440 = stablehlo.constant dense<32> : tensor<ui32> loc(#loc64)
      %441 = stablehlo.subtract %440, %436 : tensor<ui32> loc(#loc43)
      %442 = stablehlo.broadcast_in_dim %441, dims = [] : (tensor<ui32>) -> tensor<1440xui32> loc(#loc69)
      %443 = stablehlo.shift_right_logical %434, %442 : tensor<1440xui32> loc(#loc69)
      %444 = stablehlo.or %439, %443 : tensor<1440xui32> loc(#loc70)
      %445 = stablehlo.xor %437, %444 : tensor<1440xui32> loc(#loc71)
      %446 = "stablehlo.slice"(%iterArg_6) {limit_indices = dense<3> : tensor<1xi64>, start_indices = dense<2> : tensor<1xi64>, strides = dense<1> : tensor<1xi64>} : (tensor<4xui32>) -> tensor<1xui32> loc(#loc73)
      %447 = stablehlo.reshape %446 : (tensor<1xui32>) -> tensor<ui32> loc(#loc66)
      %448 = stablehlo.add %437, %445 : tensor<1440xui32> loc(#loc67)
      %449 = stablehlo.broadcast_in_dim %447, dims = [] : (tensor<ui32>) -> tensor<1440xui32> loc(#loc68)
      %450 = stablehlo.shift_left %445, %449 : tensor<1440xui32> loc(#loc68)
      %451 = stablehlo.constant dense<32> : tensor<ui32> loc(#loc64)
      %452 = stablehlo.subtract %451, %447 : tensor<ui32> loc(#loc43)
      %453 = stablehlo.broadcast_in_dim %452, dims = [] : (tensor<ui32>) -> tensor<1440xui32> loc(#loc69)
      %454 = stablehlo.shift_right_logical %445, %453 : tensor<1440xui32> loc(#loc69)
      %455 = stablehlo.or %450, %454 : tensor<1440xui32> loc(#loc70)
      %456 = stablehlo.xor %448, %455 : tensor<1440xui32> loc(#loc71)
      %457 = "stablehlo.slice"(%iterArg_6) {limit_indices = dense<4> : tensor<1xi64>, start_indices = dense<3> : tensor<1xi64>, strides = dense<1> : tensor<1xi64>} : (tensor<4xui32>) -> tensor<1xui32> loc(#loc74)
      %458 = stablehlo.reshape %457 : (tensor<1xui32>) -> tensor<ui32> loc(#loc66)
      %459 = stablehlo.add %448, %456 : tensor<1440xui32> loc(#loc67)
      %460 = stablehlo.broadcast_in_dim %458, dims = [] : (tensor<ui32>) -> tensor<1440xui32> loc(#loc68)
      %461 = stablehlo.shift_left %456, %460 : tensor<1440xui32> loc(#loc68)
      %462 = stablehlo.constant dense<32> : tensor<ui32> loc(#loc64)
      %463 = stablehlo.subtract %462, %458 : tensor<ui32> loc(#loc43)
      %464 = stablehlo.broadcast_in_dim %463, dims = [] : (tensor<ui32>) -> tensor<1440xui32> loc(#loc69)
      %465 = stablehlo.shift_right_logical %456, %464 : tensor<1440xui32> loc(#loc69)
      %466 = stablehlo.or %461, %465 : tensor<1440xui32> loc(#loc70)
      %467 = stablehlo.xor %459, %466 : tensor<1440xui32> loc(#loc71)
      %468 = stablehlo.broadcast_in_dim %iterArg_3, dims = [] : (tensor<ui32>) -> tensor<1440xui32> loc(#loc67)
      %469 = stablehlo.add %459, %468 : tensor<1440xui32> loc(#loc67)
      %470 = stablehlo.broadcast_in_dim %iterArg_4, dims = [] : (tensor<ui32>) -> tensor<1440xui32> loc(#loc67)
      %471 = stablehlo.add %467, %470 : tensor<1440xui32> loc(#loc67)
      %472 = stablehlo.constant dense<1> : tensor<i32> loc(#loc64)
      %473 = stablehlo.add %iterArg_0, %472 : tensor<i32> loc(#loc39)
      %474 = stablehlo.convert %473 : (tensor<i32>) -> tensor<ui32> loc(#loc75)
      %475 = stablehlo.broadcast_in_dim %474, dims = [] : (tensor<ui32>) -> tensor<1440xui32> loc(#loc67)
      %476 = stablehlo.add %471, %475 : tensor<1440xui32> loc(#loc67)
      %477 = stablehlo.constant dense<1> : tensor<i32> loc(#loc64)
      %478 = stablehlo.add %iterArg, %477 : tensor<i32> loc(#loc39)
      stablehlo.return %478, %423, %469, %476, %iterArg_4, %iterArg_5, %iterArg_3, %iterArg_7, %iterArg_6 : tensor<i32>, tensor<i32>, tensor<1440xui32>, tensor<1440xui32>, tensor<ui32>, tensor<ui32>, tensor<ui32>, tensor<4xui32>, tensor<4xui32> loc(#loc64)
    } loc(#loc64)
    %71 = stablehlo.concatenate %70#2, %70#3, dim = 0 : (tensor<1440xui32>, tensor<1440xui32>) -> tensor<2880xui32> loc(#loc76)
    %72 = stablehlo.reshape %71 : (tensor<2880xui32>) -> tensor<3x3x10x32xui32> loc(#loc77)
    %73 = stablehlo.constant dense<9> : tensor<ui32> loc(#loc)
    %74 = stablehlo.broadcast_in_dim %73, dims = [] : (tensor<ui32>) -> tensor<3x3x10x32xui32> loc(#loc78)
    %75 = stablehlo.shift_right_logical %72, %74 : tensor<3x3x10x32xui32> loc(#loc78)
    %76 = stablehlo.constant dense<1065353216> : tensor<ui32> loc(#loc)
    %77 = stablehlo.broadcast_in_dim %76, dims = [] : (tensor<ui32>) -> tensor<3x3x10x32xui32> loc(#loc79)
    %78 = stablehlo.or %75, %77 : tensor<3x3x10x32xui32> loc(#loc79)
    %79 = stablehlo.bitcast_convert %78 : (tensor<3x3x10x32xui32>) -> tensor<3x3x10x32xf32> loc(#loc80)
    %80 = stablehlo.constant dense<1.000000e+00> : tensor<f32> loc(#loc)
    %81 = stablehlo.broadcast_in_dim %80, dims = [] : (tensor<f32>) -> tensor<3x3x10x32xf32> loc(#loc81)
    %82 = stablehlo.subtract %79, %81 : tensor<3x3x10x32xf32> loc(#loc81)
    %83 = stablehlo.subtract %51, %50 : tensor<1x1x1x1xf32> loc(#loc81)
    %84 = stablehlo.broadcast_in_dim %83, dims = [0, 1, 2, 3] : (tensor<1x1x1x1xf32>) -> tensor<3x3x10x32xf32> loc(#loc82)
    %85 = stablehlo.multiply %82, %84 : tensor<3x3x10x32xf32> loc(#loc82)
    %86 = stablehlo.broadcast_in_dim %50, dims = [0, 1, 2, 3] : (tensor<1x1x1x1xf32>) -> tensor<3x3x10x32xf32> loc(#loc62)
    %87 = stablehlo.add %85, %86 : tensor<3x3x10x32xf32> loc(#loc62)
    %88 = stablehlo.broadcast_in_dim %50, dims = [0, 1, 2, 3] : (tensor<1x1x1x1xf32>) -> tensor<3x3x10x32xf32> loc(#loc83)
    %89 = stablehlo.maximum %88, %87 : tensor<3x3x10x32xf32> loc(#loc83)
    %90 = chlo.erf_inv %89 : tensor<3x3x10x32xf32> -> tensor<3x3x10x32xf32> loc(#loc84)
    %91 = stablehlo.constant dense<1.41421354> : tensor<f32> loc(#loc)
    %92 = stablehlo.broadcast_in_dim %91, dims = [] : (tensor<f32>) -> tensor<3x3x10x32xf32> loc(#loc82)
    %93 = stablehlo.multiply %92, %90 : tensor<3x3x10x32xf32> loc(#loc82)
    %94 = stablehlo.constant dense<-2.000000e+00> : tensor<f32> loc(#loc)
    %95 = stablehlo.constant dense<0x7F800000> : tensor<f32> loc(#loc)
    %96 = chlo.next_after %94, %95 : tensor<f32>, tensor<f32> -> tensor<f32> loc(#loc85)
    %97 = stablehlo.constant dense<2.000000e+00> : tensor<f32> loc(#loc)
    %98 = stablehlo.constant dense<0xFF800000> : tensor<f32> loc(#loc)
    %99 = chlo.next_after %97, %98 : tensor<f32>, tensor<f32> -> tensor<f32> loc(#loc85)
    %100 = call @clip(%93, %96, %99) : (tensor<3x3x10x32xf32>, tensor<f32>, tensor<f32>) -> tensor<3x3x10x32xf32> loc(#loc86)
    %101 = stablehlo.broadcast_in_dim %41, dims = [] : (tensor<f32>) -> tensor<3x3x10x32xf32> loc(#loc82)
    %102 = stablehlo.multiply %100, %101 : tensor<3x3x10x32xf32> loc(#loc82)
    %103 = stablehlo.constant dense<0.000000e+00> : tensor<f32> loc(#loc)
    %104 = stablehlo.broadcast_in_dim %103, dims = [] : (tensor<f32>) -> tensor<32xf32> loc(#loc87)
    %105 = stablehlo.constant dense<1643651158> : tensor<ui32> loc(#loc)
    %106 = stablehlo.constant dense<32> : tensor<ui32> loc(#loc88)
    %107 = stablehlo.shift_right_logical %105, %106 : tensor<ui32> loc(#loc89)
    %108 = stablehlo.reshape %107 : (tensor<ui32>) -> tensor<1xui32> loc(#loc90)
    %109 = stablehlo.constant dense<4294967295> : tensor<ui32> loc(#loc88)
    %110 = stablehlo.and %105, %109 : tensor<ui32> loc(#loc91)
    %111 = stablehlo.reshape %110 : (tensor<ui32>) -> tensor<1xui32> loc(#loc90)
    %112 = stablehlo.concatenate %108, %111, dim = 0 : (tensor<1xui32>, tensor<1xui32>) -> tensor<2xui32> loc(#loc92)
    %113 = "stablehlo.slice"(%10) {limit_indices = dense<1> : tensor<1xi64>, start_indices = dense<0> : tensor<1xi64>, strides = dense<1> : tensor<1xi64>} : (tensor<2xui32>) -> tensor<1xui32> loc(#loc93)
    %114 = stablehlo.reshape %113 : (tensor<1xui32>) -> tensor<ui32> loc(#loc94)
    %115 = "stablehlo.slice"(%10) {limit_indices = dense<2> : tensor<1xi64>, start_indices = dense<1> : tensor<1xi64>, strides = dense<1> : tensor<1xi64>} : (tensor<2xui32>) -> tensor<1xui32> loc(#loc95)
    %116 = stablehlo.reshape %115 : (tensor<1xui32>) -> tensor<ui32> loc(#loc94)
    %117 = "stablehlo.slice"(%112) {limit_indices = dense<1> : tensor<1xi64>, start_indices = dense<0> : tensor<1xi64>, strides = dense<1> : tensor<1xi64>} : (tensor<2xui32>) -> tensor<1xui32> loc(#loc96)
    %118 = "stablehlo.slice"(%112) {limit_indices = dense<2> : tensor<1xi64>, start_indices = dense<1> : tensor<1xi64>, strides = dense<1> : tensor<1xi64>} : (tensor<2xui32>) -> tensor<1xui32> loc(#loc97)
    %119 = stablehlo.constant dense<[13, 15, 26, 6]> : tensor<4xui32> loc(#loc98)
    %120 = stablehlo.constant dense<[17, 29, 16, 24]> : tensor<4xui32> loc(#loc98)
    %121 = stablehlo.xor %114, %116 : tensor<ui32> loc(#loc99)
    %122 = stablehlo.constant dense<466688986> : tensor<ui32> loc(#loc98)
    %123 = stablehlo.xor %121, %122 : tensor<ui32> loc(#loc99)
    %124 = stablehlo.broadcast_in_dim %114, dims = [] : (tensor<ui32>) -> tensor<1xui32> loc(#loc100)
    %125 = stablehlo.add %117, %124 : tensor<1xui32> loc(#loc100)
    %126 = stablehlo.broadcast_in_dim %116, dims = [] : (tensor<ui32>) -> tensor<1xui32> loc(#loc100)
    %127 = stablehlo.add %118, %126 : tensor<1xui32> loc(#loc100)
    %128 = stablehlo.constant dense<0> : tensor<i32> loc(#loc98)
    %129 = stablehlo.constant dense<0> : tensor<i32> loc(#loc101)
    %130:9 = stablehlo.while(%iterArg = %129, %iterArg_0 = %128, %iterArg_1 = %125, %iterArg_2 = %127, %iterArg_3 = %116, %iterArg_4 = %123, %iterArg_5 = %114, %iterArg_6 = %119, %iterArg_7 = %120) : tensor<i32>, tensor<i32>, tensor<1xui32>, tensor<1xui32>, tensor<ui32>, tensor<ui32>, tensor<ui32>, tensor<4xui32>, tensor<4xui32>
     cond {
      %422 = stablehlo.constant dense<5> : tensor<i32> loc(#loc102)
      %423 = stablehlo.compare  LT, %iterArg, %422,  SIGNED : (tensor<i32>, tensor<i32>) -> tensor<i1> loc(#loc103)
      stablehlo.return %423 : tensor<i1> loc(#loc102)
    } do {
      %422 = stablehlo.constant dense<1> : tensor<i32> loc(#loc102)
      %423 = stablehlo.add %iterArg_0, %422 : tensor<i32> loc(#loc104)
      %424 = "stablehlo.slice"(%iterArg_6) {limit_indices = dense<1> : tensor<1xi64>, start_indices = dense<0> : tensor<1xi64>, strides = dense<1> : tensor<1xi64>} : (tensor<4xui32>) -> tensor<1xui32> loc(#loc105)
      %425 = stablehlo.reshape %424 : (tensor<1xui32>) -> tensor<ui32> loc(#loc106)
      %426 = stablehlo.add %iterArg_1, %iterArg_2 : tensor<1xui32> loc(#loc104)
      %427 = stablehlo.broadcast_in_dim %425, dims = [] : (tensor<ui32>) -> tensor<1xui32> loc(#loc107)
      %428 = stablehlo.shift_left %iterArg_2, %427 : tensor<1xui32> loc(#loc107)
      %429 = stablehlo.constant dense<32> : tensor<ui32> loc(#loc102)
      %430 = stablehlo.subtract %429, %425 : tensor<ui32> loc(#loc108)
      %431 = stablehlo.broadcast_in_dim %430, dims = [] : (tensor<ui32>) -> tensor<1xui32> loc(#loc109)
      %432 = stablehlo.shift_right_logical %iterArg_2, %431 : tensor<1xui32> loc(#loc109)
      %433 = stablehlo.or %428, %432 : tensor<1xui32> loc(#loc110)
      %434 = stablehlo.xor %426, %433 : tensor<1xui32> loc(#loc111)
      %435 = "stablehlo.slice"(%iterArg_6) {limit_indices = dense<2> : tensor<1xi64>, start_indices = dense<1> : tensor<1xi64>, strides = dense<1> : tensor<1xi64>} : (tensor<4xui32>) -> tensor<1xui32> loc(#loc112)
      %436 = stablehlo.reshape %435 : (tensor<1xui32>) -> tensor<ui32> loc(#loc106)
      %437 = stablehlo.add %426, %434 : tensor<1xui32> loc(#loc104)
      %438 = stablehlo.broadcast_in_dim %436, dims = [] : (tensor<ui32>) -> tensor<1xui32> loc(#loc107)
      %439 = stablehlo.shift_left %434, %438 : tensor<1xui32> loc(#loc107)
      %440 = stablehlo.constant dense<32> : tensor<ui32> loc(#loc102)
      %441 = stablehlo.subtract %440, %436 : tensor<ui32> loc(#loc108)
      %442 = stablehlo.broadcast_in_dim %441, dims = [] : (tensor<ui32>) -> tensor<1xui32> loc(#loc109)
      %443 = stablehlo.shift_right_logical %434, %442 : tensor<1xui32> loc(#loc109)
      %444 = stablehlo.or %439, %443 : tensor<1xui32> loc(#loc110)
      %445 = stablehlo.xor %437, %444 : tensor<1xui32> loc(#loc111)
      %446 = "stablehlo.slice"(%iterArg_6) {limit_indices = dense<3> : tensor<1xi64>, start_indices = dense<2> : tensor<1xi64>, strides = dense<1> : tensor<1xi64>} : (tensor<4xui32>) -> tensor<1xui32> loc(#loc113)
      %447 = stablehlo.reshape %446 : (tensor<1xui32>) -> tensor<ui32> loc(#loc106)
      %448 = stablehlo.add %437, %445 : tensor<1xui32> loc(#loc104)
      %449 = stablehlo.broadcast_in_dim %447, dims = [] : (tensor<ui32>) -> tensor<1xui32> loc(#loc107)
      %450 = stablehlo.shift_left %445, %449 : tensor<1xui32> loc(#loc107)
      %451 = stablehlo.constant dense<32> : tensor<ui32> loc(#loc102)
      %452 = stablehlo.subtract %451, %447 : tensor<ui32> loc(#loc108)
      %453 = stablehlo.broadcast_in_dim %452, dims = [] : (tensor<ui32>) -> tensor<1xui32> loc(#loc109)
      %454 = stablehlo.shift_right_logical %445, %453 : tensor<1xui32> loc(#loc109)
      %455 = stablehlo.or %450, %454 : tensor<1xui32> loc(#loc110)
      %456 = stablehlo.xor %448, %455 : tensor<1xui32> loc(#loc111)
      %457 = "stablehlo.slice"(%iterArg_6) {limit_indices = dense<4> : tensor<1xi64>, start_indices = dense<3> : tensor<1xi64>, strides = dense<1> : tensor<1xi64>} : (tensor<4xui32>) -> tensor<1xui32> loc(#loc114)
      %458 = stablehlo.reshape %457 : (tensor<1xui32>) -> tensor<ui32> loc(#loc106)
      %459 = stablehlo.add %448, %456 : tensor<1xui32> loc(#loc104)
      %460 = stablehlo.broadcast_in_dim %458, dims = [] : (tensor<ui32>) -> tensor<1xui32> loc(#loc107)
      %461 = stablehlo.shift_left %456, %460 : tensor<1xui32> loc(#loc107)
      %462 = stablehlo.constant dense<32> : tensor<ui32> loc(#loc102)
      %463 = stablehlo.subtract %462, %458 : tensor<ui32> loc(#loc108)
      %464 = stablehlo.broadcast_in_dim %463, dims = [] : (tensor<ui32>) -> tensor<1xui32> loc(#loc109)
      %465 = stablehlo.shift_right_logical %456, %464 : tensor<1xui32> loc(#loc109)
      %466 = stablehlo.or %461, %465 : tensor<1xui32> loc(#loc110)
      %467 = stablehlo.xor %459, %466 : tensor<1xui32> loc(#loc111)
      %468 = stablehlo.broadcast_in_dim %iterArg_3, dims = [] : (tensor<ui32>) -> tensor<1xui32> loc(#loc104)
      %469 = stablehlo.add %459, %468 : tensor<1xui32> loc(#loc104)
      %470 = stablehlo.broadcast_in_dim %iterArg_4, dims = [] : (tensor<ui32>) -> tensor<1xui32> loc(#loc104)
      %471 = stablehlo.add %467, %470 : tensor<1xui32> loc(#loc104)
      %472 = stablehlo.constant dense<1> : tensor<i32> loc(#loc102)
      %473 = stablehlo.add %iterArg_0, %472 : tensor<i32> loc(#loc104)
      %474 = stablehlo.convert %473 : (tensor<i32>) -> tensor<ui32> loc(#loc115)
      %475 = stablehlo.broadcast_in_dim %474, dims = [] : (tensor<ui32>) -> tensor<1xui32> loc(#loc104)
      %476 = stablehlo.add %471, %475 : tensor<1xui32> loc(#loc104)
      %477 = stablehlo.constant dense<1> : tensor<i32> loc(#loc102)
      %478 = stablehlo.add %iterArg, %477 : tensor<i32> loc(#loc104)
      stablehlo.return %478, %423, %469, %476, %iterArg_4, %iterArg_5, %iterArg_3, %iterArg_7, %iterArg_6 : tensor<i32>, tensor<i32>, tensor<1xui32>, tensor<1xui32>, tensor<ui32>, tensor<ui32>, tensor<ui32>, tensor<4xui32>, tensor<4xui32> loc(#loc102)
    } loc(#loc102)
    %131 = stablehlo.concatenate %130#2, %130#3, dim = 0 : (tensor<1xui32>, tensor<1xui32>) -> tensor<2xui32> loc(#loc92)
    %132 = stablehlo.constant dense<0.00347222225> : tensor<f32> loc(#loc)
    %133 = stablehlo.sqrt %132 : tensor<f32> loc(#loc116)
    %134 = stablehlo.constant dense<0.879625678> : tensor<f32> loc(#loc)
    %135 = stablehlo.divide %133, %134 : tensor<f32> loc(#loc117)
    %136 = stablehlo.constant dense<-2.000000e+00> : tensor<f32> loc(#loc)
    %137 = stablehlo.constant dense<1.41421354> : tensor<f32> loc(#loc)
    %138 = stablehlo.divide %136, %137 : tensor<f32> loc(#loc117)
    %139 = chlo.erf %138 : tensor<f32> -> tensor<f32> loc(#loc118)
    %140 = stablehlo.constant dense<2.000000e+00> : tensor<f32> loc(#loc)
    %141 = stablehlo.constant dense<1.41421354> : tensor<f32> loc(#loc)
    %142 = stablehlo.divide %140, %141 : tensor<f32> loc(#loc117)
    %143 = chlo.erf %142 : tensor<f32> -> tensor<f32> loc(#loc118)
    %144 = stablehlo.broadcast_in_dim %139, dims = [] : (tensor<f32>) -> tensor<1x1x1x1xf32> loc(#loc119)
    %145 = stablehlo.broadcast_in_dim %143, dims = [] : (tensor<f32>) -> tensor<1x1x1x1xf32> loc(#loc119)
    %146 = stablehlo.iota dim = 0 : tensor<18432xui32> loc(#loc120)
    %147 = "stablehlo.slice"(%131) {limit_indices = dense<1> : tensor<1xi64>, start_indices = dense<0> : tensor<1xi64>, strides = dense<1> : tensor<1xi64>} : (tensor<2xui32>) -> tensor<1xui32> loc(#loc121)
    %148 = stablehlo.reshape %147 : (tensor<1xui32>) -> tensor<ui32> loc(#loc122)
    %149 = "stablehlo.slice"(%131) {limit_indices = dense<2> : tensor<1xi64>, start_indices = dense<1> : tensor<1xi64>, strides = dense<1> : tensor<1xi64>} : (tensor<2xui32>) -> tensor<1xui32> loc(#loc123)
    %150 = stablehlo.reshape %149 : (tensor<1xui32>) -> tensor<ui32> loc(#loc122)
    %151 = "stablehlo.slice"(%146) {limit_indices = dense<9216> : tensor<1xi64>, start_indices = dense<0> : tensor<1xi64>, strides = dense<1> : tensor<1xi64>} : (tensor<18432xui32>) -> tensor<9216xui32> loc(#loc124)
    %152 = "stablehlo.slice"(%146) {limit_indices = dense<18432> : tensor<1xi64>, start_indices = dense<9216> : tensor<1xi64>, strides = dense<1> : tensor<1xi64>} : (tensor<18432xui32>) -> tensor<9216xui32> loc(#loc125)
    %153 = stablehlo.constant dense<[13, 15, 26, 6]> : tensor<4xui32> loc(#loc126)
    %154 = stablehlo.constant dense<[17, 29, 16, 24]> : tensor<4xui32> loc(#loc126)
    %155 = stablehlo.xor %148, %150 : tensor<ui32> loc(#loc99)
    %156 = stablehlo.constant dense<466688986> : tensor<ui32> loc(#loc126)
    %157 = stablehlo.xor %155, %156 : tensor<ui32> loc(#loc99)
    %158 = stablehlo.broadcast_in_dim %148, dims = [] : (tensor<ui32>) -> tensor<9216xui32> loc(#loc127)
    %159 = stablehlo.add %151, %158 : tensor<9216xui32> loc(#loc127)
    %160 = stablehlo.broadcast_in_dim %150, dims = [] : (tensor<ui32>) -> tensor<9216xui32> loc(#loc127)
    %161 = stablehlo.add %152, %160 : tensor<9216xui32> loc(#loc127)
    %162 = stablehlo.constant dense<0> : tensor<i32> loc(#loc126)
    %163 = stablehlo.constant dense<0> : tensor<i32> loc(#loc128)
    %164:9 = stablehlo.while(%iterArg = %163, %iterArg_0 = %162, %iterArg_1 = %159, %iterArg_2 = %161, %iterArg_3 = %150, %iterArg_4 = %157, %iterArg_5 = %148, %iterArg_6 = %153, %iterArg_7 = %154) : tensor<i32>, tensor<i32>, tensor<9216xui32>, tensor<9216xui32>, tensor<ui32>, tensor<ui32>, tensor<ui32>, tensor<4xui32>, tensor<4xui32>
     cond {
      %422 = stablehlo.constant dense<5> : tensor<i32> loc(#loc129)
      %423 = stablehlo.compare  LT, %iterArg, %422,  SIGNED : (tensor<i32>, tensor<i32>) -> tensor<i1> loc(#loc103)
      stablehlo.return %423 : tensor<i1> loc(#loc129)
    } do {
      %422 = stablehlo.constant dense<1> : tensor<i32> loc(#loc129)
      %423 = stablehlo.add %iterArg_0, %422 : tensor<i32> loc(#loc104)
      %424 = "stablehlo.slice"(%iterArg_6) {limit_indices = dense<1> : tensor<1xi64>, start_indices = dense<0> : tensor<1xi64>, strides = dense<1> : tensor<1xi64>} : (tensor<4xui32>) -> tensor<1xui32> loc(#loc130)
      %425 = stablehlo.reshape %424 : (tensor<1xui32>) -> tensor<ui32> loc(#loc131)
      %426 = stablehlo.add %iterArg_1, %iterArg_2 : tensor<9216xui32> loc(#loc132)
      %427 = stablehlo.broadcast_in_dim %425, dims = [] : (tensor<ui32>) -> tensor<9216xui32> loc(#loc133)
      %428 = stablehlo.shift_left %iterArg_2, %427 : tensor<9216xui32> loc(#loc133)
      %429 = stablehlo.constant dense<32> : tensor<ui32> loc(#loc129)
      %430 = stablehlo.subtract %429, %425 : tensor<ui32> loc(#loc108)
      %431 = stablehlo.broadcast_in_dim %430, dims = [] : (tensor<ui32>) -> tensor<9216xui32> loc(#loc134)
      %432 = stablehlo.shift_right_logical %iterArg_2, %431 : tensor<9216xui32> loc(#loc134)
      %433 = stablehlo.or %428, %432 : tensor<9216xui32> loc(#loc135)
      %434 = stablehlo.xor %426, %433 : tensor<9216xui32> loc(#loc136)
      %435 = "stablehlo.slice"(%iterArg_6) {limit_indices = dense<2> : tensor<1xi64>, start_indices = dense<1> : tensor<1xi64>, strides = dense<1> : tensor<1xi64>} : (tensor<4xui32>) -> tensor<1xui32> loc(#loc137)
      %436 = stablehlo.reshape %435 : (tensor<1xui32>) -> tensor<ui32> loc(#loc131)
      %437 = stablehlo.add %426, %434 : tensor<9216xui32> loc(#loc132)
      %438 = stablehlo.broadcast_in_dim %436, dims = [] : (tensor<ui32>) -> tensor<9216xui32> loc(#loc133)
      %439 = stablehlo.shift_left %434, %438 : tensor<9216xui32> loc(#loc133)
      %440 = stablehlo.constant dense<32> : tensor<ui32> loc(#loc129)
      %441 = stablehlo.subtract %440, %436 : tensor<ui32> loc(#loc108)
      %442 = stablehlo.broadcast_in_dim %441, dims = [] : (tensor<ui32>) -> tensor<9216xui32> loc(#loc134)
      %443 = stablehlo.shift_right_logical %434, %442 : tensor<9216xui32> loc(#loc134)
      %444 = stablehlo.or %439, %443 : tensor<9216xui32> loc(#loc135)
      %445 = stablehlo.xor %437, %444 : tensor<9216xui32> loc(#loc136)
      %446 = "stablehlo.slice"(%iterArg_6) {limit_indices = dense<3> : tensor<1xi64>, start_indices = dense<2> : tensor<1xi64>, strides = dense<1> : tensor<1xi64>} : (tensor<4xui32>) -> tensor<1xui32> loc(#loc138)
      %447 = stablehlo.reshape %446 : (tensor<1xui32>) -> tensor<ui32> loc(#loc131)
      %448 = stablehlo.add %437, %445 : tensor<9216xui32> loc(#loc132)
      %449 = stablehlo.broadcast_in_dim %447, dims = [] : (tensor<ui32>) -> tensor<9216xui32> loc(#loc133)
      %450 = stablehlo.shift_left %445, %449 : tensor<9216xui32> loc(#loc133)
      %451 = stablehlo.constant dense<32> : tensor<ui32> loc(#loc129)
      %452 = stablehlo.subtract %451, %447 : tensor<ui32> loc(#loc108)
      %453 = stablehlo.broadcast_in_dim %452, dims = [] : (tensor<ui32>) -> tensor<9216xui32> loc(#loc134)
      %454 = stablehlo.shift_right_logical %445, %453 : tensor<9216xui32> loc(#loc134)
      %455 = stablehlo.or %450, %454 : tensor<9216xui32> loc(#loc135)
      %456 = stablehlo.xor %448, %455 : tensor<9216xui32> loc(#loc136)
      %457 = "stablehlo.slice"(%iterArg_6) {limit_indices = dense<4> : tensor<1xi64>, start_indices = dense<3> : tensor<1xi64>, strides = dense<1> : tensor<1xi64>} : (tensor<4xui32>) -> tensor<1xui32> loc(#loc139)
      %458 = stablehlo.reshape %457 : (tensor<1xui32>) -> tensor<ui32> loc(#loc131)
      %459 = stablehlo.add %448, %456 : tensor<9216xui32> loc(#loc132)
      %460 = stablehlo.broadcast_in_dim %458, dims = [] : (tensor<ui32>) -> tensor<9216xui32> loc(#loc133)
      %461 = stablehlo.shift_left %456, %460 : tensor<9216xui32> loc(#loc133)
      %462 = stablehlo.constant dense<32> : tensor<ui32> loc(#loc129)
      %463 = stablehlo.subtract %462, %458 : tensor<ui32> loc(#loc108)
      %464 = stablehlo.broadcast_in_dim %463, dims = [] : (tensor<ui32>) -> tensor<9216xui32> loc(#loc134)
      %465 = stablehlo.shift_right_logical %456, %464 : tensor<9216xui32> loc(#loc134)
      %466 = stablehlo.or %461, %465 : tensor<9216xui32> loc(#loc135)
      %467 = stablehlo.xor %459, %466 : tensor<9216xui32> loc(#loc136)
      %468 = stablehlo.broadcast_in_dim %iterArg_3, dims = [] : (tensor<ui32>) -> tensor<9216xui32> loc(#loc132)
      %469 = stablehlo.add %459, %468 : tensor<9216xui32> loc(#loc132)
      %470 = stablehlo.broadcast_in_dim %iterArg_4, dims = [] : (tensor<ui32>) -> tensor<9216xui32> loc(#loc132)
      %471 = stablehlo.add %467, %470 : tensor<9216xui32> loc(#loc132)
      %472 = stablehlo.constant dense<1> : tensor<i32> loc(#loc129)
      %473 = stablehlo.add %iterArg_0, %472 : tensor<i32> loc(#loc104)
      %474 = stablehlo.convert %473 : (tensor<i32>) -> tensor<ui32> loc(#loc140)
      %475 = stablehlo.broadcast_in_dim %474, dims = [] : (tensor<ui32>) -> tensor<9216xui32> loc(#loc132)
      %476 = stablehlo.add %471, %475 : tensor<9216xui32> loc(#loc132)
      %477 = stablehlo.constant dense<1> : tensor<i32> loc(#loc129)
      %478 = stablehlo.add %iterArg, %477 : tensor<i32> loc(#loc104)
      stablehlo.return %478, %423, %469, %476, %iterArg_4, %iterArg_5, %iterArg_3, %iterArg_7, %iterArg_6 : tensor<i32>, tensor<i32>, tensor<9216xui32>, tensor<9216xui32>, tensor<ui32>, tensor<ui32>, tensor<ui32>, tensor<4xui32>, tensor<4xui32> loc(#loc129)
    } loc(#loc129)
    %165 = stablehlo.concatenate %164#2, %164#3, dim = 0 : (tensor<9216xui32>, tensor<9216xui32>) -> tensor<18432xui32> loc(#loc141)
    %166 = stablehlo.reshape %165 : (tensor<18432xui32>) -> tensor<3x3x32x64xui32> loc(#loc142)
    %167 = stablehlo.constant dense<9> : tensor<ui32> loc(#loc)
    %168 = stablehlo.broadcast_in_dim %167, dims = [] : (tensor<ui32>) -> tensor<3x3x32x64xui32> loc(#loc143)
    %169 = stablehlo.shift_right_logical %166, %168 : tensor<3x3x32x64xui32> loc(#loc143)
    %170 = stablehlo.constant dense<1065353216> : tensor<ui32> loc(#loc)
    %171 = stablehlo.broadcast_in_dim %170, dims = [] : (tensor<ui32>) -> tensor<3x3x32x64xui32> loc(#loc144)
    %172 = stablehlo.or %169, %171 : tensor<3x3x32x64xui32> loc(#loc144)
    %173 = stablehlo.bitcast_convert %172 : (tensor<3x3x32x64xui32>) -> tensor<3x3x32x64xf32> loc(#loc145)
    %174 = stablehlo.constant dense<1.000000e+00> : tensor<f32> loc(#loc)
    %175 = stablehlo.broadcast_in_dim %174, dims = [] : (tensor<f32>) -> tensor<3x3x32x64xf32> loc(#loc146)
    %176 = stablehlo.subtract %173, %175 : tensor<3x3x32x64xf32> loc(#loc146)
    %177 = stablehlo.subtract %145, %144 : tensor<1x1x1x1xf32> loc(#loc146)
    %178 = stablehlo.broadcast_in_dim %177, dims = [0, 1, 2, 3] : (tensor<1x1x1x1xf32>) -> tensor<3x3x32x64xf32> loc(#loc147)
    %179 = stablehlo.multiply %176, %178 : tensor<3x3x32x64xf32> loc(#loc147)
    %180 = stablehlo.broadcast_in_dim %144, dims = [0, 1, 2, 3] : (tensor<1x1x1x1xf32>) -> tensor<3x3x32x64xf32> loc(#loc127)
    %181 = stablehlo.add %179, %180 : tensor<3x3x32x64xf32> loc(#loc127)
    %182 = stablehlo.broadcast_in_dim %144, dims = [0, 1, 2, 3] : (tensor<1x1x1x1xf32>) -> tensor<3x3x32x64xf32> loc(#loc148)
    %183 = stablehlo.maximum %182, %181 : tensor<3x3x32x64xf32> loc(#loc148)
    %184 = chlo.erf_inv %183 : tensor<3x3x32x64xf32> -> tensor<3x3x32x64xf32> loc(#loc149)
    %185 = stablehlo.constant dense<1.41421354> : tensor<f32> loc(#loc)
    %186 = stablehlo.broadcast_in_dim %185, dims = [] : (tensor<f32>) -> tensor<3x3x32x64xf32> loc(#loc147)
    %187 = stablehlo.multiply %186, %184 : tensor<3x3x32x64xf32> loc(#loc147)
    %188 = stablehlo.constant dense<-2.000000e+00> : tensor<f32> loc(#loc)
    %189 = stablehlo.constant dense<0x7F800000> : tensor<f32> loc(#loc)
    %190 = chlo.next_after %188, %189 : tensor<f32>, tensor<f32> -> tensor<f32> loc(#loc150)
    %191 = stablehlo.constant dense<2.000000e+00> : tensor<f32> loc(#loc)
    %192 = stablehlo.constant dense<0xFF800000> : tensor<f32> loc(#loc)
    %193 = chlo.next_after %191, %192 : tensor<f32>, tensor<f32> -> tensor<f32> loc(#loc150)
    %194 = call @clip_0(%187, %190, %193) : (tensor<3x3x32x64xf32>, tensor<f32>, tensor<f32>) -> tensor<3x3x32x64xf32> loc(#loc151)
    %195 = stablehlo.broadcast_in_dim %135, dims = [] : (tensor<f32>) -> tensor<3x3x32x64xf32> loc(#loc147)
    %196 = stablehlo.multiply %194, %195 : tensor<3x3x32x64xf32> loc(#loc147)
    %197 = stablehlo.constant dense<0.000000e+00> : tensor<f32> loc(#loc)
    %198 = stablehlo.broadcast_in_dim %197, dims = [] : (tensor<f32>) -> tensor<64xf32> loc(#loc152)
    %199 = stablehlo.constant dense<2998342421> : tensor<ui32> loc(#loc)
    %200 = stablehlo.constant dense<32> : tensor<ui32> loc(#loc153)
    %201 = stablehlo.shift_right_logical %199, %200 : tensor<ui32> loc(#loc154)
    %202 = stablehlo.reshape %201 : (tensor<ui32>) -> tensor<1xui32> loc(#loc155)
    %203 = stablehlo.constant dense<4294967295> : tensor<ui32> loc(#loc153)
    %204 = stablehlo.and %199, %203 : tensor<ui32> loc(#loc156)
    %205 = stablehlo.reshape %204 : (tensor<ui32>) -> tensor<1xui32> loc(#loc155)
    %206 = stablehlo.concatenate %202, %205, dim = 0 : (tensor<1xui32>, tensor<1xui32>) -> tensor<2xui32> loc(#loc157)
    %207 = "stablehlo.slice"(%10) {limit_indices = dense<1> : tensor<1xi64>, start_indices = dense<0> : tensor<1xi64>, strides = dense<1> : tensor<1xi64>} : (tensor<2xui32>) -> tensor<1xui32> loc(#loc158)
    %208 = stablehlo.reshape %207 : (tensor<1xui32>) -> tensor<ui32> loc(#loc159)
    %209 = "stablehlo.slice"(%10) {limit_indices = dense<2> : tensor<1xi64>, start_indices = dense<1> : tensor<1xi64>, strides = dense<1> : tensor<1xi64>} : (tensor<2xui32>) -> tensor<1xui32> loc(#loc160)
    %210 = stablehlo.reshape %209 : (tensor<1xui32>) -> tensor<ui32> loc(#loc159)
    %211 = "stablehlo.slice"(%206) {limit_indices = dense<1> : tensor<1xi64>, start_indices = dense<0> : tensor<1xi64>, strides = dense<1> : tensor<1xi64>} : (tensor<2xui32>) -> tensor<1xui32> loc(#loc161)
    %212 = "stablehlo.slice"(%206) {limit_indices = dense<2> : tensor<1xi64>, start_indices = dense<1> : tensor<1xi64>, strides = dense<1> : tensor<1xi64>} : (tensor<2xui32>) -> tensor<1xui32> loc(#loc162)
    %213 = stablehlo.constant dense<[13, 15, 26, 6]> : tensor<4xui32> loc(#loc163)
    %214 = stablehlo.constant dense<[17, 29, 16, 24]> : tensor<4xui32> loc(#loc163)
    %215 = stablehlo.xor %208, %210 : tensor<ui32> loc(#loc164)
    %216 = stablehlo.constant dense<466688986> : tensor<ui32> loc(#loc163)
    %217 = stablehlo.xor %215, %216 : tensor<ui32> loc(#loc164)
    %218 = stablehlo.broadcast_in_dim %208, dims = [] : (tensor<ui32>) -> tensor<1xui32> loc(#loc165)
    %219 = stablehlo.add %211, %218 : tensor<1xui32> loc(#loc165)
    %220 = stablehlo.broadcast_in_dim %210, dims = [] : (tensor<ui32>) -> tensor<1xui32> loc(#loc165)
    %221 = stablehlo.add %212, %220 : tensor<1xui32> loc(#loc165)
    %222 = stablehlo.constant dense<0> : tensor<i32> loc(#loc163)
    %223 = stablehlo.constant dense<0> : tensor<i32> loc(#loc166)
    %224:9 = stablehlo.while(%iterArg = %223, %iterArg_0 = %222, %iterArg_1 = %219, %iterArg_2 = %221, %iterArg_3 = %210, %iterArg_4 = %217, %iterArg_5 = %208, %iterArg_6 = %213, %iterArg_7 = %214) : tensor<i32>, tensor<i32>, tensor<1xui32>, tensor<1xui32>, tensor<ui32>, tensor<ui32>, tensor<ui32>, tensor<4xui32>, tensor<4xui32>
     cond {
      %422 = stablehlo.constant dense<5> : tensor<i32> loc(#loc167)
      %423 = stablehlo.compare  LT, %iterArg, %422,  SIGNED : (tensor<i32>, tensor<i32>) -> tensor<i1> loc(#loc168)
      stablehlo.return %423 : tensor<i1> loc(#loc167)
    } do {
      %422 = stablehlo.constant dense<1> : tensor<i32> loc(#loc167)
      %423 = stablehlo.add %iterArg_0, %422 : tensor<i32> loc(#loc169)
      %424 = "stablehlo.slice"(%iterArg_6) {limit_indices = dense<1> : tensor<1xi64>, start_indices = dense<0> : tensor<1xi64>, strides = dense<1> : tensor<1xi64>} : (tensor<4xui32>) -> tensor<1xui32> loc(#loc170)
      %425 = stablehlo.reshape %424 : (tensor<1xui32>) -> tensor<ui32> loc(#loc171)
      %426 = stablehlo.add %iterArg_1, %iterArg_2 : tensor<1xui32> loc(#loc169)
      %427 = stablehlo.broadcast_in_dim %425, dims = [] : (tensor<ui32>) -> tensor<1xui32> loc(#loc172)
      %428 = stablehlo.shift_left %iterArg_2, %427 : tensor<1xui32> loc(#loc172)
      %429 = stablehlo.constant dense<32> : tensor<ui32> loc(#loc167)
      %430 = stablehlo.subtract %429, %425 : tensor<ui32> loc(#loc173)
      %431 = stablehlo.broadcast_in_dim %430, dims = [] : (tensor<ui32>) -> tensor<1xui32> loc(#loc174)
      %432 = stablehlo.shift_right_logical %iterArg_2, %431 : tensor<1xui32> loc(#loc174)
      %433 = stablehlo.or %428, %432 : tensor<1xui32> loc(#loc175)
      %434 = stablehlo.xor %426, %433 : tensor<1xui32> loc(#loc176)
      %435 = "stablehlo.slice"(%iterArg_6) {limit_indices = dense<2> : tensor<1xi64>, start_indices = dense<1> : tensor<1xi64>, strides = dense<1> : tensor<1xi64>} : (tensor<4xui32>) -> tensor<1xui32> loc(#loc177)
      %436 = stablehlo.reshape %435 : (tensor<1xui32>) -> tensor<ui32> loc(#loc171)
      %437 = stablehlo.add %426, %434 : tensor<1xui32> loc(#loc169)
      %438 = stablehlo.broadcast_in_dim %436, dims = [] : (tensor<ui32>) -> tensor<1xui32> loc(#loc172)
      %439 = stablehlo.shift_left %434, %438 : tensor<1xui32> loc(#loc172)
      %440 = stablehlo.constant dense<32> : tensor<ui32> loc(#loc167)
      %441 = stablehlo.subtract %440, %436 : tensor<ui32> loc(#loc173)
      %442 = stablehlo.broadcast_in_dim %441, dims = [] : (tensor<ui32>) -> tensor<1xui32> loc(#loc174)
      %443 = stablehlo.shift_right_logical %434, %442 : tensor<1xui32> loc(#loc174)
      %444 = stablehlo.or %439, %443 : tensor<1xui32> loc(#loc175)
      %445 = stablehlo.xor %437, %444 : tensor<1xui32> loc(#loc176)
      %446 = "stablehlo.slice"(%iterArg_6) {limit_indices = dense<3> : tensor<1xi64>, start_indices = dense<2> : tensor<1xi64>, strides = dense<1> : tensor<1xi64>} : (tensor<4xui32>) -> tensor<1xui32> loc(#loc178)
      %447 = stablehlo.reshape %446 : (tensor<1xui32>) -> tensor<ui32> loc(#loc171)
      %448 = stablehlo.add %437, %445 : tensor<1xui32> loc(#loc169)
      %449 = stablehlo.broadcast_in_dim %447, dims = [] : (tensor<ui32>) -> tensor<1xui32> loc(#loc172)
      %450 = stablehlo.shift_left %445, %449 : tensor<1xui32> loc(#loc172)
      %451 = stablehlo.constant dense<32> : tensor<ui32> loc(#loc167)
      %452 = stablehlo.subtract %451, %447 : tensor<ui32> loc(#loc173)
      %453 = stablehlo.broadcast_in_dim %452, dims = [] : (tensor<ui32>) -> tensor<1xui32> loc(#loc174)
      %454 = stablehlo.shift_right_logical %445, %453 : tensor<1xui32> loc(#loc174)
      %455 = stablehlo.or %450, %454 : tensor<1xui32> loc(#loc175)
      %456 = stablehlo.xor %448, %455 : tensor<1xui32> loc(#loc176)
      %457 = "stablehlo.slice"(%iterArg_6) {limit_indices = dense<4> : tensor<1xi64>, start_indices = dense<3> : tensor<1xi64>, strides = dense<1> : tensor<1xi64>} : (tensor<4xui32>) -> tensor<1xui32> loc(#loc179)
      %458 = stablehlo.reshape %457 : (tensor<1xui32>) -> tensor<ui32> loc(#loc171)
      %459 = stablehlo.add %448, %456 : tensor<1xui32> loc(#loc169)
      %460 = stablehlo.broadcast_in_dim %458, dims = [] : (tensor<ui32>) -> tensor<1xui32> loc(#loc172)
      %461 = stablehlo.shift_left %456, %460 : tensor<1xui32> loc(#loc172)
      %462 = stablehlo.constant dense<32> : tensor<ui32> loc(#loc167)
      %463 = stablehlo.subtract %462, %458 : tensor<ui32> loc(#loc173)
      %464 = stablehlo.broadcast_in_dim %463, dims = [] : (tensor<ui32>) -> tensor<1xui32> loc(#loc174)
      %465 = stablehlo.shift_right_logical %456, %464 : tensor<1xui32> loc(#loc174)
      %466 = stablehlo.or %461, %465 : tensor<1xui32> loc(#loc175)
      %467 = stablehlo.xor %459, %466 : tensor<1xui32> loc(#loc176)
      %468 = stablehlo.broadcast_in_dim %iterArg_3, dims = [] : (tensor<ui32>) -> tensor<1xui32> loc(#loc169)
      %469 = stablehlo.add %459, %468 : tensor<1xui32> loc(#loc169)
      %470 = stablehlo.broadcast_in_dim %iterArg_4, dims = [] : (tensor<ui32>) -> tensor<1xui32> loc(#loc169)
      %471 = stablehlo.add %467, %470 : tensor<1xui32> loc(#loc169)
      %472 = stablehlo.constant dense<1> : tensor<i32> loc(#loc167)
      %473 = stablehlo.add %iterArg_0, %472 : tensor<i32> loc(#loc169)
      %474 = stablehlo.convert %473 : (tensor<i32>) -> tensor<ui32> loc(#loc180)
      %475 = stablehlo.broadcast_in_dim %474, dims = [] : (tensor<ui32>) -> tensor<1xui32> loc(#loc169)
      %476 = stablehlo.add %471, %475 : tensor<1xui32> loc(#loc169)
      %477 = stablehlo.constant dense<1> : tensor<i32> loc(#loc167)
      %478 = stablehlo.add %iterArg, %477 : tensor<i32> loc(#loc169)
      stablehlo.return %478, %423, %469, %476, %iterArg_4, %iterArg_5, %iterArg_3, %iterArg_7, %iterArg_6 : tensor<i32>, tensor<i32>, tensor<1xui32>, tensor<1xui32>, tensor<ui32>, tensor<ui32>, tensor<ui32>, tensor<4xui32>, tensor<4xui32> loc(#loc167)
    } loc(#loc167)
    %225 = stablehlo.concatenate %224#2, %224#3, dim = 0 : (tensor<1xui32>, tensor<1xui32>) -> tensor<2xui32> loc(#loc157)
    %226 = stablehlo.constant dense<6.10351563E-5> : tensor<f32> loc(#loc)
    %227 = stablehlo.sqrt %226 : tensor<f32> loc(#loc181)
    %228 = stablehlo.constant dense<0.879625678> : tensor<f32> loc(#loc)
    %229 = stablehlo.divide %227, %228 : tensor<f32> loc(#loc182)
    %230 = stablehlo.constant dense<-2.000000e+00> : tensor<f32> loc(#loc)
    %231 = stablehlo.constant dense<1.41421354> : tensor<f32> loc(#loc)
    %232 = stablehlo.divide %230, %231 : tensor<f32> loc(#loc182)
    %233 = chlo.erf %232 : tensor<f32> -> tensor<f32> loc(#loc183)
    %234 = stablehlo.constant dense<2.000000e+00> : tensor<f32> loc(#loc)
    %235 = stablehlo.constant dense<1.41421354> : tensor<f32> loc(#loc)
    %236 = stablehlo.divide %234, %235 : tensor<f32> loc(#loc182)
    %237 = chlo.erf %236 : tensor<f32> -> tensor<f32> loc(#loc183)
    %238 = stablehlo.broadcast_in_dim %233, dims = [] : (tensor<f32>) -> tensor<1x1xf32> loc(#loc184)
    %239 = stablehlo.broadcast_in_dim %237, dims = [] : (tensor<f32>) -> tensor<1x1xf32> loc(#loc184)
    %240 = stablehlo.iota dim = 0 : tensor<4194304xui32> loc(#loc185)
    %241 = "stablehlo.slice"(%225) {limit_indices = dense<1> : tensor<1xi64>, start_indices = dense<0> : tensor<1xi64>, strides = dense<1> : tensor<1xi64>} : (tensor<2xui32>) -> tensor<1xui32> loc(#loc186)
    %242 = stablehlo.reshape %241 : (tensor<1xui32>) -> tensor<ui32> loc(#loc187)
    %243 = "stablehlo.slice"(%225) {limit_indices = dense<2> : tensor<1xi64>, start_indices = dense<1> : tensor<1xi64>, strides = dense<1> : tensor<1xi64>} : (tensor<2xui32>) -> tensor<1xui32> loc(#loc188)
    %244 = stablehlo.reshape %243 : (tensor<1xui32>) -> tensor<ui32> loc(#loc187)
    %245 = "stablehlo.slice"(%240) {limit_indices = dense<2097152> : tensor<1xi64>, start_indices = dense<0> : tensor<1xi64>, strides = dense<1> : tensor<1xi64>} : (tensor<4194304xui32>) -> tensor<2097152xui32> loc(#loc189)
    %246 = "stablehlo.slice"(%240) {limit_indices = dense<4194304> : tensor<1xi64>, start_indices = dense<2097152> : tensor<1xi64>, strides = dense<1> : tensor<1xi64>} : (tensor<4194304xui32>) -> tensor<2097152xui32> loc(#loc190)
    %247 = stablehlo.constant dense<[13, 15, 26, 6]> : tensor<4xui32> loc(#loc191)
    %248 = stablehlo.constant dense<[17, 29, 16, 24]> : tensor<4xui32> loc(#loc191)
    %249 = stablehlo.xor %242, %244 : tensor<ui32> loc(#loc164)
    %250 = stablehlo.constant dense<466688986> : tensor<ui32> loc(#loc191)
    %251 = stablehlo.xor %249, %250 : tensor<ui32> loc(#loc164)
    %252 = stablehlo.broadcast_in_dim %242, dims = [] : (tensor<ui32>) -> tensor<2097152xui32> loc(#loc192)
    %253 = stablehlo.add %245, %252 : tensor<2097152xui32> loc(#loc192)
    %254 = stablehlo.broadcast_in_dim %244, dims = [] : (tensor<ui32>) -> tensor<2097152xui32> loc(#loc192)
    %255 = stablehlo.add %246, %254 : tensor<2097152xui32> loc(#loc192)
    %256 = stablehlo.constant dense<0> : tensor<i32> loc(#loc191)
    %257 = stablehlo.constant dense<0> : tensor<i32> loc(#loc193)
    %258:9 = stablehlo.while(%iterArg = %257, %iterArg_0 = %256, %iterArg_1 = %253, %iterArg_2 = %255, %iterArg_3 = %244, %iterArg_4 = %251, %iterArg_5 = %242, %iterArg_6 = %247, %iterArg_7 = %248) : tensor<i32>, tensor<i32>, tensor<2097152xui32>, tensor<2097152xui32>, tensor<ui32>, tensor<ui32>, tensor<ui32>, tensor<4xui32>, tensor<4xui32>
     cond {
      %422 = stablehlo.constant dense<5> : tensor<i32> loc(#loc194)
      %423 = stablehlo.compare  LT, %iterArg, %422,  SIGNED : (tensor<i32>, tensor<i32>) -> tensor<i1> loc(#loc168)
      stablehlo.return %423 : tensor<i1> loc(#loc194)
    } do {
      %422 = stablehlo.constant dense<1> : tensor<i32> loc(#loc194)
      %423 = stablehlo.add %iterArg_0, %422 : tensor<i32> loc(#loc169)
      %424 = "stablehlo.slice"(%iterArg_6) {limit_indices = dense<1> : tensor<1xi64>, start_indices = dense<0> : tensor<1xi64>, strides = dense<1> : tensor<1xi64>} : (tensor<4xui32>) -> tensor<1xui32> loc(#loc195)
      %425 = stablehlo.reshape %424 : (tensor<1xui32>) -> tensor<ui32> loc(#loc196)
      %426 = stablehlo.add %iterArg_1, %iterArg_2 : tensor<2097152xui32> loc(#loc197)
      %427 = stablehlo.broadcast_in_dim %425, dims = [] : (tensor<ui32>) -> tensor<2097152xui32> loc(#loc198)
      %428 = stablehlo.shift_left %iterArg_2, %427 : tensor<2097152xui32> loc(#loc198)
      %429 = stablehlo.constant dense<32> : tensor<ui32> loc(#loc194)
      %430 = stablehlo.subtract %429, %425 : tensor<ui32> loc(#loc173)
      %431 = stablehlo.broadcast_in_dim %430, dims = [] : (tensor<ui32>) -> tensor<2097152xui32> loc(#loc199)
      %432 = stablehlo.shift_right_logical %iterArg_2, %431 : tensor<2097152xui32> loc(#loc199)
      %433 = stablehlo.or %428, %432 : tensor<2097152xui32> loc(#loc200)
      %434 = stablehlo.xor %426, %433 : tensor<2097152xui32> loc(#loc201)
      %435 = "stablehlo.slice"(%iterArg_6) {limit_indices = dense<2> : tensor<1xi64>, start_indices = dense<1> : tensor<1xi64>, strides = dense<1> : tensor<1xi64>} : (tensor<4xui32>) -> tensor<1xui32> loc(#loc202)
      %436 = stablehlo.reshape %435 : (tensor<1xui32>) -> tensor<ui32> loc(#loc196)
      %437 = stablehlo.add %426, %434 : tensor<2097152xui32> loc(#loc197)
      %438 = stablehlo.broadcast_in_dim %436, dims = [] : (tensor<ui32>) -> tensor<2097152xui32> loc(#loc198)
      %439 = stablehlo.shift_left %434, %438 : tensor<2097152xui32> loc(#loc198)
      %440 = stablehlo.constant dense<32> : tensor<ui32> loc(#loc194)
      %441 = stablehlo.subtract %440, %436 : tensor<ui32> loc(#loc173)
      %442 = stablehlo.broadcast_in_dim %441, dims = [] : (tensor<ui32>) -> tensor<2097152xui32> loc(#loc199)
      %443 = stablehlo.shift_right_logical %434, %442 : tensor<2097152xui32> loc(#loc199)
      %444 = stablehlo.or %439, %443 : tensor<2097152xui32> loc(#loc200)
      %445 = stablehlo.xor %437, %444 : tensor<2097152xui32> loc(#loc201)
      %446 = "stablehlo.slice"(%iterArg_6) {limit_indices = dense<3> : tensor<1xi64>, start_indices = dense<2> : tensor<1xi64>, strides = dense<1> : tensor<1xi64>} : (tensor<4xui32>) -> tensor<1xui32> loc(#loc203)
      %447 = stablehlo.reshape %446 : (tensor<1xui32>) -> tensor<ui32> loc(#loc196)
      %448 = stablehlo.add %437, %445 : tensor<2097152xui32> loc(#loc197)
      %449 = stablehlo.broadcast_in_dim %447, dims = [] : (tensor<ui32>) -> tensor<2097152xui32> loc(#loc198)
      %450 = stablehlo.shift_left %445, %449 : tensor<2097152xui32> loc(#loc198)
      %451 = stablehlo.constant dense<32> : tensor<ui32> loc(#loc194)
      %452 = stablehlo.subtract %451, %447 : tensor<ui32> loc(#loc173)
      %453 = stablehlo.broadcast_in_dim %452, dims = [] : (tensor<ui32>) -> tensor<2097152xui32> loc(#loc199)
      %454 = stablehlo.shift_right_logical %445, %453 : tensor<2097152xui32> loc(#loc199)
      %455 = stablehlo.or %450, %454 : tensor<2097152xui32> loc(#loc200)
      %456 = stablehlo.xor %448, %455 : tensor<2097152xui32> loc(#loc201)
      %457 = "stablehlo.slice"(%iterArg_6) {limit_indices = dense<4> : tensor<1xi64>, start_indices = dense<3> : tensor<1xi64>, strides = dense<1> : tensor<1xi64>} : (tensor<4xui32>) -> tensor<1xui32> loc(#loc204)
      %458 = stablehlo.reshape %457 : (tensor<1xui32>) -> tensor<ui32> loc(#loc196)
      %459 = stablehlo.add %448, %456 : tensor<2097152xui32> loc(#loc197)
      %460 = stablehlo.broadcast_in_dim %458, dims = [] : (tensor<ui32>) -> tensor<2097152xui32> loc(#loc198)
      %461 = stablehlo.shift_left %456, %460 : tensor<2097152xui32> loc(#loc198)
      %462 = stablehlo.constant dense<32> : tensor<ui32> loc(#loc194)
      %463 = stablehlo.subtract %462, %458 : tensor<ui32> loc(#loc173)
      %464 = stablehlo.broadcast_in_dim %463, dims = [] : (tensor<ui32>) -> tensor<2097152xui32> loc(#loc199)
      %465 = stablehlo.shift_right_logical %456, %464 : tensor<2097152xui32> loc(#loc199)
      %466 = stablehlo.or %461, %465 : tensor<2097152xui32> loc(#loc200)
      %467 = stablehlo.xor %459, %466 : tensor<2097152xui32> loc(#loc201)
      %468 = stablehlo.broadcast_in_dim %iterArg_3, dims = [] : (tensor<ui32>) -> tensor<2097152xui32> loc(#loc197)
      %469 = stablehlo.add %459, %468 : tensor<2097152xui32> loc(#loc197)
      %470 = stablehlo.broadcast_in_dim %iterArg_4, dims = [] : (tensor<ui32>) -> tensor<2097152xui32> loc(#loc197)
      %471 = stablehlo.add %467, %470 : tensor<2097152xui32> loc(#loc197)
      %472 = stablehlo.constant dense<1> : tensor<i32> loc(#loc194)
      %473 = stablehlo.add %iterArg_0, %472 : tensor<i32> loc(#loc169)
      %474 = stablehlo.convert %473 : (tensor<i32>) -> tensor<ui32> loc(#loc205)
      %475 = stablehlo.broadcast_in_dim %474, dims = [] : (tensor<ui32>) -> tensor<2097152xui32> loc(#loc197)
      %476 = stablehlo.add %471, %475 : tensor<2097152xui32> loc(#loc197)
      %477 = stablehlo.constant dense<1> : tensor<i32> loc(#loc194)
      %478 = stablehlo.add %iterArg, %477 : tensor<i32> loc(#loc169)
      stablehlo.return %478, %423, %469, %476, %iterArg_4, %iterArg_5, %iterArg_3, %iterArg_7, %iterArg_6 : tensor<i32>, tensor<i32>, tensor<2097152xui32>, tensor<2097152xui32>, tensor<ui32>, tensor<ui32>, tensor<ui32>, tensor<4xui32>, tensor<4xui32> loc(#loc194)
    } loc(#loc194)
    %259 = stablehlo.concatenate %258#2, %258#3, dim = 0 : (tensor<2097152xui32>, tensor<2097152xui32>) -> tensor<4194304xui32> loc(#loc206)
    %260 = stablehlo.reshape %259 : (tensor<4194304xui32>) -> tensor<16384x256xui32> loc(#loc207)
    %261 = stablehlo.constant dense<9> : tensor<ui32> loc(#loc)
    %262 = stablehlo.broadcast_in_dim %261, dims = [] : (tensor<ui32>) -> tensor<16384x256xui32> loc(#loc208)
    %263 = stablehlo.shift_right_logical %260, %262 : tensor<16384x256xui32> loc(#loc208)
    %264 = stablehlo.constant dense<1065353216> : tensor<ui32> loc(#loc)
    %265 = stablehlo.broadcast_in_dim %264, dims = [] : (tensor<ui32>) -> tensor<16384x256xui32> loc(#loc209)
    %266 = stablehlo.or %263, %265 : tensor<16384x256xui32> loc(#loc209)
    %267 = stablehlo.bitcast_convert %266 : (tensor<16384x256xui32>) -> tensor<16384x256xf32> loc(#loc210)
    %268 = stablehlo.constant dense<1.000000e+00> : tensor<f32> loc(#loc)
    %269 = stablehlo.broadcast_in_dim %268, dims = [] : (tensor<f32>) -> tensor<16384x256xf32> loc(#loc211)
    %270 = stablehlo.subtract %267, %269 : tensor<16384x256xf32> loc(#loc211)
    %271 = stablehlo.subtract %239, %238 : tensor<1x1xf32> loc(#loc211)
    %272 = stablehlo.broadcast_in_dim %271, dims = [0, 1] : (tensor<1x1xf32>) -> tensor<16384x256xf32> loc(#loc212)
    %273 = stablehlo.multiply %270, %272 : tensor<16384x256xf32> loc(#loc212)
    %274 = stablehlo.broadcast_in_dim %238, dims = [0, 1] : (tensor<1x1xf32>) -> tensor<16384x256xf32> loc(#loc192)
    %275 = stablehlo.add %273, %274 : tensor<16384x256xf32> loc(#loc192)
    %276 = stablehlo.broadcast_in_dim %238, dims = [0, 1] : (tensor<1x1xf32>) -> tensor<16384x256xf32> loc(#loc213)
    %277 = stablehlo.maximum %276, %275 : tensor<16384x256xf32> loc(#loc213)
    %278 = chlo.erf_inv %277 : tensor<16384x256xf32> -> tensor<16384x256xf32> loc(#loc214)
    %279 = stablehlo.constant dense<1.41421354> : tensor<f32> loc(#loc)
    %280 = stablehlo.broadcast_in_dim %279, dims = [] : (tensor<f32>) -> tensor<16384x256xf32> loc(#loc212)
    %281 = stablehlo.multiply %280, %278 : tensor<16384x256xf32> loc(#loc212)
    %282 = stablehlo.constant dense<-2.000000e+00> : tensor<f32> loc(#loc)
    %283 = stablehlo.constant dense<0x7F800000> : tensor<f32> loc(#loc)
    %284 = chlo.next_after %282, %283 : tensor<f32>, tensor<f32> -> tensor<f32> loc(#loc215)
    %285 = stablehlo.constant dense<2.000000e+00> : tensor<f32> loc(#loc)
    %286 = stablehlo.constant dense<0xFF800000> : tensor<f32> loc(#loc)
    %287 = chlo.next_after %285, %286 : tensor<f32>, tensor<f32> -> tensor<f32> loc(#loc215)
    %288 = call @clip_1(%281, %284, %287) : (tensor<16384x256xf32>, tensor<f32>, tensor<f32>) -> tensor<16384x256xf32> loc(#loc216)
    %289 = stablehlo.broadcast_in_dim %229, dims = [] : (tensor<f32>) -> tensor<16384x256xf32> loc(#loc212)
    %290 = stablehlo.multiply %288, %289 : tensor<16384x256xf32> loc(#loc212)
    %291 = stablehlo.constant dense<0.000000e+00> : tensor<f32> loc(#loc)
    %292 = stablehlo.broadcast_in_dim %291, dims = [] : (tensor<f32>) -> tensor<256xf32> loc(#loc217)
    %293 = stablehlo.constant dense<111800540> : tensor<ui32> loc(#loc)
    %294 = stablehlo.constant dense<32> : tensor<ui32> loc(#loc218)
    %295 = stablehlo.shift_right_logical %293, %294 : tensor<ui32> loc(#loc219)
    %296 = stablehlo.reshape %295 : (tensor<ui32>) -> tensor<1xui32> loc(#loc220)
    %297 = stablehlo.constant dense<4294967295> : tensor<ui32> loc(#loc218)
    %298 = stablehlo.and %293, %297 : tensor<ui32> loc(#loc221)
    %299 = stablehlo.reshape %298 : (tensor<ui32>) -> tensor<1xui32> loc(#loc220)
    %300 = stablehlo.concatenate %296, %299, dim = 0 : (tensor<1xui32>, tensor<1xui32>) -> tensor<2xui32> loc(#loc222)
    %301 = "stablehlo.slice"(%10) {limit_indices = dense<1> : tensor<1xi64>, start_indices = dense<0> : tensor<1xi64>, strides = dense<1> : tensor<1xi64>} : (tensor<2xui32>) -> tensor<1xui32> loc(#loc223)
    %302 = stablehlo.reshape %301 : (tensor<1xui32>) -> tensor<ui32> loc(#loc224)
    %303 = "stablehlo.slice"(%10) {limit_indices = dense<2> : tensor<1xi64>, start_indices = dense<1> : tensor<1xi64>, strides = dense<1> : tensor<1xi64>} : (tensor<2xui32>) -> tensor<1xui32> loc(#loc225)
    %304 = stablehlo.reshape %303 : (tensor<1xui32>) -> tensor<ui32> loc(#loc224)
    %305 = "stablehlo.slice"(%300) {limit_indices = dense<1> : tensor<1xi64>, start_indices = dense<0> : tensor<1xi64>, strides = dense<1> : tensor<1xi64>} : (tensor<2xui32>) -> tensor<1xui32> loc(#loc226)
    %306 = "stablehlo.slice"(%300) {limit_indices = dense<2> : tensor<1xi64>, start_indices = dense<1> : tensor<1xi64>, strides = dense<1> : tensor<1xi64>} : (tensor<2xui32>) -> tensor<1xui32> loc(#loc227)
    %307 = stablehlo.constant dense<[13, 15, 26, 6]> : tensor<4xui32> loc(#loc228)
    %308 = stablehlo.constant dense<[17, 29, 16, 24]> : tensor<4xui32> loc(#loc228)
    %309 = stablehlo.xor %302, %304 : tensor<ui32> loc(#loc229)
    %310 = stablehlo.constant dense<466688986> : tensor<ui32> loc(#loc228)
    %311 = stablehlo.xor %309, %310 : tensor<ui32> loc(#loc229)
    %312 = stablehlo.broadcast_in_dim %302, dims = [] : (tensor<ui32>) -> tensor<1xui32> loc(#loc230)
    %313 = stablehlo.add %305, %312 : tensor<1xui32> loc(#loc230)
    %314 = stablehlo.broadcast_in_dim %304, dims = [] : (tensor<ui32>) -> tensor<1xui32> loc(#loc230)
    %315 = stablehlo.add %306, %314 : tensor<1xui32> loc(#loc230)
    %316 = stablehlo.constant dense<0> : tensor<i32> loc(#loc228)
    %317 = stablehlo.constant dense<0> : tensor<i32> loc(#loc231)
    %318:9 = stablehlo.while(%iterArg = %317, %iterArg_0 = %316, %iterArg_1 = %313, %iterArg_2 = %315, %iterArg_3 = %304, %iterArg_4 = %311, %iterArg_5 = %302, %iterArg_6 = %307, %iterArg_7 = %308) : tensor<i32>, tensor<i32>, tensor<1xui32>, tensor<1xui32>, tensor<ui32>, tensor<ui32>, tensor<ui32>, tensor<4xui32>, tensor<4xui32>
     cond {
      %422 = stablehlo.constant dense<5> : tensor<i32> loc(#loc232)
      %423 = stablehlo.compare  LT, %iterArg, %422,  SIGNED : (tensor<i32>, tensor<i32>) -> tensor<i1> loc(#loc233)
      stablehlo.return %423 : tensor<i1> loc(#loc232)
    } do {
      %422 = stablehlo.constant dense<1> : tensor<i32> loc(#loc232)
      %423 = stablehlo.add %iterArg_0, %422 : tensor<i32> loc(#loc234)
      %424 = "stablehlo.slice"(%iterArg_6) {limit_indices = dense<1> : tensor<1xi64>, start_indices = dense<0> : tensor<1xi64>, strides = dense<1> : tensor<1xi64>} : (tensor<4xui32>) -> tensor<1xui32> loc(#loc235)
      %425 = stablehlo.reshape %424 : (tensor<1xui32>) -> tensor<ui32> loc(#loc236)
      %426 = stablehlo.add %iterArg_1, %iterArg_2 : tensor<1xui32> loc(#loc234)
      %427 = stablehlo.broadcast_in_dim %425, dims = [] : (tensor<ui32>) -> tensor<1xui32> loc(#loc237)
      %428 = stablehlo.shift_left %iterArg_2, %427 : tensor<1xui32> loc(#loc237)
      %429 = stablehlo.constant dense<32> : tensor<ui32> loc(#loc232)
      %430 = stablehlo.subtract %429, %425 : tensor<ui32> loc(#loc238)
      %431 = stablehlo.broadcast_in_dim %430, dims = [] : (tensor<ui32>) -> tensor<1xui32> loc(#loc239)
      %432 = stablehlo.shift_right_logical %iterArg_2, %431 : tensor<1xui32> loc(#loc239)
      %433 = stablehlo.or %428, %432 : tensor<1xui32> loc(#loc240)
      %434 = stablehlo.xor %426, %433 : tensor<1xui32> loc(#loc241)
      %435 = "stablehlo.slice"(%iterArg_6) {limit_indices = dense<2> : tensor<1xi64>, start_indices = dense<1> : tensor<1xi64>, strides = dense<1> : tensor<1xi64>} : (tensor<4xui32>) -> tensor<1xui32> loc(#loc242)
      %436 = stablehlo.reshape %435 : (tensor<1xui32>) -> tensor<ui32> loc(#loc236)
      %437 = stablehlo.add %426, %434 : tensor<1xui32> loc(#loc234)
      %438 = stablehlo.broadcast_in_dim %436, dims = [] : (tensor<ui32>) -> tensor<1xui32> loc(#loc237)
      %439 = stablehlo.shift_left %434, %438 : tensor<1xui32> loc(#loc237)
      %440 = stablehlo.constant dense<32> : tensor<ui32> loc(#loc232)
      %441 = stablehlo.subtract %440, %436 : tensor<ui32> loc(#loc238)
      %442 = stablehlo.broadcast_in_dim %441, dims = [] : (tensor<ui32>) -> tensor<1xui32> loc(#loc239)
      %443 = stablehlo.shift_right_logical %434, %442 : tensor<1xui32> loc(#loc239)
      %444 = stablehlo.or %439, %443 : tensor<1xui32> loc(#loc240)
      %445 = stablehlo.xor %437, %444 : tensor<1xui32> loc(#loc241)
      %446 = "stablehlo.slice"(%iterArg_6) {limit_indices = dense<3> : tensor<1xi64>, start_indices = dense<2> : tensor<1xi64>, strides = dense<1> : tensor<1xi64>} : (tensor<4xui32>) -> tensor<1xui32> loc(#loc243)
      %447 = stablehlo.reshape %446 : (tensor<1xui32>) -> tensor<ui32> loc(#loc236)
      %448 = stablehlo.add %437, %445 : tensor<1xui32> loc(#loc234)
      %449 = stablehlo.broadcast_in_dim %447, dims = [] : (tensor<ui32>) -> tensor<1xui32> loc(#loc237)
      %450 = stablehlo.shift_left %445, %449 : tensor<1xui32> loc(#loc237)
      %451 = stablehlo.constant dense<32> : tensor<ui32> loc(#loc232)
      %452 = stablehlo.subtract %451, %447 : tensor<ui32> loc(#loc238)
      %453 = stablehlo.broadcast_in_dim %452, dims = [] : (tensor<ui32>) -> tensor<1xui32> loc(#loc239)
      %454 = stablehlo.shift_right_logical %445, %453 : tensor<1xui32> loc(#loc239)
      %455 = stablehlo.or %450, %454 : tensor<1xui32> loc(#loc240)
      %456 = stablehlo.xor %448, %455 : tensor<1xui32> loc(#loc241)
      %457 = "stablehlo.slice"(%iterArg_6) {limit_indices = dense<4> : tensor<1xi64>, start_indices = dense<3> : tensor<1xi64>, strides = dense<1> : tensor<1xi64>} : (tensor<4xui32>) -> tensor<1xui32> loc(#loc244)
      %458 = stablehlo.reshape %457 : (tensor<1xui32>) -> tensor<ui32> loc(#loc236)
      %459 = stablehlo.add %448, %456 : tensor<1xui32> loc(#loc234)
      %460 = stablehlo.broadcast_in_dim %458, dims = [] : (tensor<ui32>) -> tensor<1xui32> loc(#loc237)
      %461 = stablehlo.shift_left %456, %460 : tensor<1xui32> loc(#loc237)
      %462 = stablehlo.constant dense<32> : tensor<ui32> loc(#loc232)
      %463 = stablehlo.subtract %462, %458 : tensor<ui32> loc(#loc238)
      %464 = stablehlo.broadcast_in_dim %463, dims = [] : (tensor<ui32>) -> tensor<1xui32> loc(#loc239)
      %465 = stablehlo.shift_right_logical %456, %464 : tensor<1xui32> loc(#loc239)
      %466 = stablehlo.or %461, %465 : tensor<1xui32> loc(#loc240)
      %467 = stablehlo.xor %459, %466 : tensor<1xui32> loc(#loc241)
      %468 = stablehlo.broadcast_in_dim %iterArg_3, dims = [] : (tensor<ui32>) -> tensor<1xui32> loc(#loc234)
      %469 = stablehlo.add %459, %468 : tensor<1xui32> loc(#loc234)
      %470 = stablehlo.broadcast_in_dim %iterArg_4, dims = [] : (tensor<ui32>) -> tensor<1xui32> loc(#loc234)
      %471 = stablehlo.add %467, %470 : tensor<1xui32> loc(#loc234)
      %472 = stablehlo.constant dense<1> : tensor<i32> loc(#loc232)
      %473 = stablehlo.add %iterArg_0, %472 : tensor<i32> loc(#loc234)
      %474 = stablehlo.convert %473 : (tensor<i32>) -> tensor<ui32> loc(#loc245)
      %475 = stablehlo.broadcast_in_dim %474, dims = [] : (tensor<ui32>) -> tensor<1xui32> loc(#loc234)
      %476 = stablehlo.add %471, %475 : tensor<1xui32> loc(#loc234)
      %477 = stablehlo.constant dense<1> : tensor<i32> loc(#loc232)
      %478 = stablehlo.add %iterArg, %477 : tensor<i32> loc(#loc234)
      stablehlo.return %478, %423, %469, %476, %iterArg_4, %iterArg_5, %iterArg_3, %iterArg_7, %iterArg_6 : tensor<i32>, tensor<i32>, tensor<1xui32>, tensor<1xui32>, tensor<ui32>, tensor<ui32>, tensor<ui32>, tensor<4xui32>, tensor<4xui32> loc(#loc232)
    } loc(#loc232)
    %319 = stablehlo.concatenate %318#2, %318#3, dim = 0 : (tensor<1xui32>, tensor<1xui32>) -> tensor<2xui32> loc(#loc222)
    %320 = stablehlo.constant dense<3.906250e-03> : tensor<f32> loc(#loc)
    %321 = stablehlo.sqrt %320 : tensor<f32> loc(#loc246)
    %322 = stablehlo.constant dense<0.879625678> : tensor<f32> loc(#loc)
    %323 = stablehlo.divide %321, %322 : tensor<f32> loc(#loc247)
    %324 = stablehlo.constant dense<-2.000000e+00> : tensor<f32> loc(#loc)
    %325 = stablehlo.constant dense<1.41421354> : tensor<f32> loc(#loc)
    %326 = stablehlo.divide %324, %325 : tensor<f32> loc(#loc247)
    %327 = chlo.erf %326 : tensor<f32> -> tensor<f32> loc(#loc248)
    %328 = stablehlo.constant dense<2.000000e+00> : tensor<f32> loc(#loc)
    %329 = stablehlo.constant dense<1.41421354> : tensor<f32> loc(#loc)
    %330 = stablehlo.divide %328, %329 : tensor<f32> loc(#loc247)
    %331 = chlo.erf %330 : tensor<f32> -> tensor<f32> loc(#loc248)
    %332 = stablehlo.broadcast_in_dim %327, dims = [] : (tensor<f32>) -> tensor<1x1xf32> loc(#loc249)
    %333 = stablehlo.broadcast_in_dim %331, dims = [] : (tensor<f32>) -> tensor<1x1xf32> loc(#loc249)
    %334 = stablehlo.iota dim = 0 : tensor<2560xui32> loc(#loc250)
    %335 = "stablehlo.slice"(%319) {limit_indices = dense<1> : tensor<1xi64>, start_indices = dense<0> : tensor<1xi64>, strides = dense<1> : tensor<1xi64>} : (tensor<2xui32>) -> tensor<1xui32> loc(#loc251)
    %336 = stablehlo.reshape %335 : (tensor<1xui32>) -> tensor<ui32> loc(#loc252)
    %337 = "stablehlo.slice"(%319) {limit_indices = dense<2> : tensor<1xi64>, start_indices = dense<1> : tensor<1xi64>, strides = dense<1> : tensor<1xi64>} : (tensor<2xui32>) -> tensor<1xui32> loc(#loc253)
    %338 = stablehlo.reshape %337 : (tensor<1xui32>) -> tensor<ui32> loc(#loc252)
    %339 = "stablehlo.slice"(%334) {limit_indices = dense<1280> : tensor<1xi64>, start_indices = dense<0> : tensor<1xi64>, strides = dense<1> : tensor<1xi64>} : (tensor<2560xui32>) -> tensor<1280xui32> loc(#loc254)
    %340 = "stablehlo.slice"(%334) {limit_indices = dense<2560> : tensor<1xi64>, start_indices = dense<1280> : tensor<1xi64>, strides = dense<1> : tensor<1xi64>} : (tensor<2560xui32>) -> tensor<1280xui32> loc(#loc255)
    %341 = stablehlo.constant dense<[13, 15, 26, 6]> : tensor<4xui32> loc(#loc256)
    %342 = stablehlo.constant dense<[17, 29, 16, 24]> : tensor<4xui32> loc(#loc256)
    %343 = stablehlo.xor %336, %338 : tensor<ui32> loc(#loc229)
    %344 = stablehlo.constant dense<466688986> : tensor<ui32> loc(#loc256)
    %345 = stablehlo.xor %343, %344 : tensor<ui32> loc(#loc229)
    %346 = stablehlo.broadcast_in_dim %336, dims = [] : (tensor<ui32>) -> tensor<1280xui32> loc(#loc257)
    %347 = stablehlo.add %339, %346 : tensor<1280xui32> loc(#loc257)
    %348 = stablehlo.broadcast_in_dim %338, dims = [] : (tensor<ui32>) -> tensor<1280xui32> loc(#loc257)
    %349 = stablehlo.add %340, %348 : tensor<1280xui32> loc(#loc257)
    %350 = stablehlo.constant dense<0> : tensor<i32> loc(#loc256)
    %351 = stablehlo.constant dense<0> : tensor<i32> loc(#loc258)
    %352:9 = stablehlo.while(%iterArg = %351, %iterArg_0 = %350, %iterArg_1 = %347, %iterArg_2 = %349, %iterArg_3 = %338, %iterArg_4 = %345, %iterArg_5 = %336, %iterArg_6 = %341, %iterArg_7 = %342) : tensor<i32>, tensor<i32>, tensor<1280xui32>, tensor<1280xui32>, tensor<ui32>, tensor<ui32>, tensor<ui32>, tensor<4xui32>, tensor<4xui32>
     cond {
      %422 = stablehlo.constant dense<5> : tensor<i32> loc(#loc259)
      %423 = stablehlo.compare  LT, %iterArg, %422,  SIGNED : (tensor<i32>, tensor<i32>) -> tensor<i1> loc(#loc233)
      stablehlo.return %423 : tensor<i1> loc(#loc259)
    } do {
      %422 = stablehlo.constant dense<1> : tensor<i32> loc(#loc259)
      %423 = stablehlo.add %iterArg_0, %422 : tensor<i32> loc(#loc234)
      %424 = "stablehlo.slice"(%iterArg_6) {limit_indices = dense<1> : tensor<1xi64>, start_indices = dense<0> : tensor<1xi64>, strides = dense<1> : tensor<1xi64>} : (tensor<4xui32>) -> tensor<1xui32> loc(#loc260)
      %425 = stablehlo.reshape %424 : (tensor<1xui32>) -> tensor<ui32> loc(#loc261)
      %426 = stablehlo.add %iterArg_1, %iterArg_2 : tensor<1280xui32> loc(#loc262)
      %427 = stablehlo.broadcast_in_dim %425, dims = [] : (tensor<ui32>) -> tensor<1280xui32> loc(#loc263)
      %428 = stablehlo.shift_left %iterArg_2, %427 : tensor<1280xui32> loc(#loc263)
      %429 = stablehlo.constant dense<32> : tensor<ui32> loc(#loc259)
      %430 = stablehlo.subtract %429, %425 : tensor<ui32> loc(#loc238)
      %431 = stablehlo.broadcast_in_dim %430, dims = [] : (tensor<ui32>) -> tensor<1280xui32> loc(#loc264)
      %432 = stablehlo.shift_right_logical %iterArg_2, %431 : tensor<1280xui32> loc(#loc264)
      %433 = stablehlo.or %428, %432 : tensor<1280xui32> loc(#loc265)
      %434 = stablehlo.xor %426, %433 : tensor<1280xui32> loc(#loc266)
      %435 = "stablehlo.slice"(%iterArg_6) {limit_indices = dense<2> : tensor<1xi64>, start_indices = dense<1> : tensor<1xi64>, strides = dense<1> : tensor<1xi64>} : (tensor<4xui32>) -> tensor<1xui32> loc(#loc267)
      %436 = stablehlo.reshape %435 : (tensor<1xui32>) -> tensor<ui32> loc(#loc261)
      %437 = stablehlo.add %426, %434 : tensor<1280xui32> loc(#loc262)
      %438 = stablehlo.broadcast_in_dim %436, dims = [] : (tensor<ui32>) -> tensor<1280xui32> loc(#loc263)
      %439 = stablehlo.shift_left %434, %438 : tensor<1280xui32> loc(#loc263)
      %440 = stablehlo.constant dense<32> : tensor<ui32> loc(#loc259)
      %441 = stablehlo.subtract %440, %436 : tensor<ui32> loc(#loc238)
      %442 = stablehlo.broadcast_in_dim %441, dims = [] : (tensor<ui32>) -> tensor<1280xui32> loc(#loc264)
      %443 = stablehlo.shift_right_logical %434, %442 : tensor<1280xui32> loc(#loc264)
      %444 = stablehlo.or %439, %443 : tensor<1280xui32> loc(#loc265)
      %445 = stablehlo.xor %437, %444 : tensor<1280xui32> loc(#loc266)
      %446 = "stablehlo.slice"(%iterArg_6) {limit_indices = dense<3> : tensor<1xi64>, start_indices = dense<2> : tensor<1xi64>, strides = dense<1> : tensor<1xi64>} : (tensor<4xui32>) -> tensor<1xui32> loc(#loc268)
      %447 = stablehlo.reshape %446 : (tensor<1xui32>) -> tensor<ui32> loc(#loc261)
      %448 = stablehlo.add %437, %445 : tensor<1280xui32> loc(#loc262)
      %449 = stablehlo.broadcast_in_dim %447, dims = [] : (tensor<ui32>) -> tensor<1280xui32> loc(#loc263)
      %450 = stablehlo.shift_left %445, %449 : tensor<1280xui32> loc(#loc263)
      %451 = stablehlo.constant dense<32> : tensor<ui32> loc(#loc259)
      %452 = stablehlo.subtract %451, %447 : tensor<ui32> loc(#loc238)
      %453 = stablehlo.broadcast_in_dim %452, dims = [] : (tensor<ui32>) -> tensor<1280xui32> loc(#loc264)
      %454 = stablehlo.shift_right_logical %445, %453 : tensor<1280xui32> loc(#loc264)
      %455 = stablehlo.or %450, %454 : tensor<1280xui32> loc(#loc265)
      %456 = stablehlo.xor %448, %455 : tensor<1280xui32> loc(#loc266)
      %457 = "stablehlo.slice"(%iterArg_6) {limit_indices = dense<4> : tensor<1xi64>, start_indices = dense<3> : tensor<1xi64>, strides = dense<1> : tensor<1xi64>} : (tensor<4xui32>) -> tensor<1xui32> loc(#loc269)
      %458 = stablehlo.reshape %457 : (tensor<1xui32>) -> tensor<ui32> loc(#loc261)
      %459 = stablehlo.add %448, %456 : tensor<1280xui32> loc(#loc262)
      %460 = stablehlo.broadcast_in_dim %458, dims = [] : (tensor<ui32>) -> tensor<1280xui32> loc(#loc263)
      %461 = stablehlo.shift_left %456, %460 : tensor<1280xui32> loc(#loc263)
      %462 = stablehlo.constant dense<32> : tensor<ui32> loc(#loc259)
      %463 = stablehlo.subtract %462, %458 : tensor<ui32> loc(#loc238)
      %464 = stablehlo.broadcast_in_dim %463, dims = [] : (tensor<ui32>) -> tensor<1280xui32> loc(#loc264)
      %465 = stablehlo.shift_right_logical %456, %464 : tensor<1280xui32> loc(#loc264)
      %466 = stablehlo.or %461, %465 : tensor<1280xui32> loc(#loc265)
      %467 = stablehlo.xor %459, %466 : tensor<1280xui32> loc(#loc266)
      %468 = stablehlo.broadcast_in_dim %iterArg_3, dims = [] : (tensor<ui32>) -> tensor<1280xui32> loc(#loc262)
      %469 = stablehlo.add %459, %468 : tensor<1280xui32> loc(#loc262)
      %470 = stablehlo.broadcast_in_dim %iterArg_4, dims = [] : (tensor<ui32>) -> tensor<1280xui32> loc(#loc262)
      %471 = stablehlo.add %467, %470 : tensor<1280xui32> loc(#loc262)
      %472 = stablehlo.constant dense<1> : tensor<i32> loc(#loc259)
      %473 = stablehlo.add %iterArg_0, %472 : tensor<i32> loc(#loc234)
      %474 = stablehlo.convert %473 : (tensor<i32>) -> tensor<ui32> loc(#loc270)
      %475 = stablehlo.broadcast_in_dim %474, dims = [] : (tensor<ui32>) -> tensor<1280xui32> loc(#loc262)
      %476 = stablehlo.add %471, %475 : tensor<1280xui32> loc(#loc262)
      %477 = stablehlo.constant dense<1> : tensor<i32> loc(#loc259)
      %478 = stablehlo.add %iterArg, %477 : tensor<i32> loc(#loc234)
      stablehlo.return %478, %423, %469, %476, %iterArg_4, %iterArg_5, %iterArg_3, %iterArg_7, %iterArg_6 : tensor<i32>, tensor<i32>, tensor<1280xui32>, tensor<1280xui32>, tensor<ui32>, tensor<ui32>, tensor<ui32>, tensor<4xui32>, tensor<4xui32> loc(#loc259)
    } loc(#loc259)
    %353 = stablehlo.concatenate %352#2, %352#3, dim = 0 : (tensor<1280xui32>, tensor<1280xui32>) -> tensor<2560xui32> loc(#loc271)
    %354 = stablehlo.reshape %353 : (tensor<2560xui32>) -> tensor<256x10xui32> loc(#loc272)
    %355 = stablehlo.constant dense<9> : tensor<ui32> loc(#loc)
    %356 = stablehlo.broadcast_in_dim %355, dims = [] : (tensor<ui32>) -> tensor<256x10xui32> loc(#loc273)
    %357 = stablehlo.shift_right_logical %354, %356 : tensor<256x10xui32> loc(#loc273)
    %358 = stablehlo.constant dense<1065353216> : tensor<ui32> loc(#loc)
    %359 = stablehlo.broadcast_in_dim %358, dims = [] : (tensor<ui32>) -> tensor<256x10xui32> loc(#loc274)
    %360 = stablehlo.or %357, %359 : tensor<256x10xui32> loc(#loc274)
    %361 = stablehlo.bitcast_convert %360 : (tensor<256x10xui32>) -> tensor<256x10xf32> loc(#loc275)
    %362 = stablehlo.constant dense<1.000000e+00> : tensor<f32> loc(#loc)
    %363 = stablehlo.broadcast_in_dim %362, dims = [] : (tensor<f32>) -> tensor<256x10xf32> loc(#loc276)
    %364 = stablehlo.subtract %361, %363 : tensor<256x10xf32> loc(#loc276)
    %365 = stablehlo.subtract %333, %332 : tensor<1x1xf32> loc(#loc276)
    %366 = stablehlo.broadcast_in_dim %365, dims = [0, 1] : (tensor<1x1xf32>) -> tensor<256x10xf32> loc(#loc277)
    %367 = stablehlo.multiply %364, %366 : tensor<256x10xf32> loc(#loc277)
    %368 = stablehlo.broadcast_in_dim %332, dims = [0, 1] : (tensor<1x1xf32>) -> tensor<256x10xf32> loc(#loc257)
    %369 = stablehlo.add %367, %368 : tensor<256x10xf32> loc(#loc257)
    %370 = stablehlo.broadcast_in_dim %332, dims = [0, 1] : (tensor<1x1xf32>) -> tensor<256x10xf32> loc(#loc278)
    %371 = stablehlo.maximum %370, %369 : tensor<256x10xf32> loc(#loc278)
    %372 = chlo.erf_inv %371 : tensor<256x10xf32> -> tensor<256x10xf32> loc(#loc279)
    %373 = stablehlo.constant dense<1.41421354> : tensor<f32> loc(#loc)
    %374 = stablehlo.broadcast_in_dim %373, dims = [] : (tensor<f32>) -> tensor<256x10xf32> loc(#loc277)
    %375 = stablehlo.multiply %374, %372 : tensor<256x10xf32> loc(#loc277)
    %376 = stablehlo.constant dense<-2.000000e+00> : tensor<f32> loc(#loc)
    %377 = stablehlo.constant dense<0x7F800000> : tensor<f32> loc(#loc)
    %378 = chlo.next_after %376, %377 : tensor<f32>, tensor<f32> -> tensor<f32> loc(#loc280)
    %379 = stablehlo.constant dense<2.000000e+00> : tensor<f32> loc(#loc)
    %380 = stablehlo.constant dense<0xFF800000> : tensor<f32> loc(#loc)
    %381 = chlo.next_after %379, %380 : tensor<f32>, tensor<f32> -> tensor<f32> loc(#loc280)
    %382 = call @clip_2(%375, %378, %381) : (tensor<256x10xf32>, tensor<f32>, tensor<f32>) -> tensor<256x10xf32> loc(#loc281)
    %383 = stablehlo.broadcast_in_dim %323, dims = [] : (tensor<f32>) -> tensor<256x10xf32> loc(#loc277)
    %384 = stablehlo.multiply %382, %383 : tensor<256x10xf32> loc(#loc277)
    %385 = stablehlo.constant dense<0.000000e+00> : tensor<f32> loc(#loc)
    %386 = stablehlo.broadcast_in_dim %385, dims = [] : (tensor<f32>) -> tensor<10xf32> loc(#loc282)
    %387 = stablehlo.convolution(%arg0, %102) dim_numbers = [b, 0, 1, f]x[0, 1, i, o]->[b, 0, 1, f], window = {stride = [1, 1], pad = [[1, 1], [1, 1]], lhs_dilate = [1, 1], rhs_dilate = [1, 1], reverse = [0, 0]} {batch_group_count = 1 : i64, feature_group_count = 1 : i64, precision_config = [#stablehlo<precision DEFAULT>, #stablehlo<precision DEFAULT>]} : (tensor<32x64x64x10xf32>, tensor<3x3x10x32xf32>) -> tensor<32x64x64x32xf32> loc(#loc283)
    %388 = stablehlo.reshape %104 : (tensor<32xf32>) -> tensor<1x1x1x32xf32> loc(#loc284)
    %389 = stablehlo.broadcast_in_dim %388, dims = [0, 1, 2, 3] : (tensor<1x1x1x32xf32>) -> tensor<32x64x64x32xf32> loc(#loc285)
    %390 = stablehlo.add %387, %389 : tensor<32x64x64x32xf32> loc(#loc285)
    %391 = call @relu(%390) : (tensor<32x64x64x32xf32>) -> tensor<32x64x64x32xf32> loc(#loc286)
    %392 = stablehlo.constant dense<0.000000e+00> : tensor<f32> loc(#loc287)
    %393 = stablehlo.broadcast_in_dim %392, dims = [] : (tensor<f32>) -> tensor<f32> loc(#loc287)
    %394 = "stablehlo.reduce_window"(%391, %393) ({
    ^bb0(%arg1: tensor<f32> loc(unknown), %arg2: tensor<f32> loc(unknown)):
      %422 = stablehlo.add %arg1, %arg2 : tensor<f32> loc(#loc287)
      stablehlo.return %422 : tensor<f32> loc(#loc287)
    }) {base_dilations = dense<1> : tensor<4xi64>, padding = dense<0> : tensor<4x2xi64>, window_dilations = dense<1> : tensor<4xi64>, window_dimensions = dense<[1, 2, 2, 1]> : tensor<4xi64>, window_strides = dense<[1, 2, 2, 1]> : tensor<4xi64>} : (tensor<32x64x64x32xf32>, tensor<f32>) -> tensor<32x32x32x32xf32> loc(#loc287)
    %395 = stablehlo.constant dense<4> : tensor<i32> loc(#loc)
    %396 = stablehlo.convert %395 : (tensor<i32>) -> tensor<f32> loc(#loc288)
    %397 = stablehlo.broadcast_in_dim %396, dims = [] : (tensor<f32>) -> tensor<32x32x32x32xf32> loc(#loc289)
    %398 = stablehlo.divide %394, %397 : tensor<32x32x32x32xf32> loc(#loc289)
    %399 = stablehlo.convolution(%398, %196) dim_numbers = [b, 0, 1, f]x[0, 1, i, o]->[b, 0, 1, f], window = {stride = [1, 1], pad = [[1, 1], [1, 1]], lhs_dilate = [1, 1], rhs_dilate = [1, 1], reverse = [0, 0]} {batch_group_count = 1 : i64, feature_group_count = 1 : i64, precision_config = [#stablehlo<precision DEFAULT>, #stablehlo<precision DEFAULT>]} : (tensor<32x32x32x32xf32>, tensor<3x3x32x64xf32>) -> tensor<32x32x32x64xf32> loc(#loc290)
    %400 = stablehlo.reshape %198 : (tensor<64xf32>) -> tensor<1x1x1x64xf32> loc(#loc291)
    %401 = stablehlo.broadcast_in_dim %400, dims = [0, 1, 2, 3] : (tensor<1x1x1x64xf32>) -> tensor<32x32x32x64xf32> loc(#loc292)
    %402 = stablehlo.add %399, %401 : tensor<32x32x32x64xf32> loc(#loc292)
    %403 = call @relu_3(%402) : (tensor<32x32x32x64xf32>) -> tensor<32x32x32x64xf32> loc(#loc293)
    %404 = stablehlo.constant dense<0.000000e+00> : tensor<f32> loc(#loc287)
    %405 = stablehlo.broadcast_in_dim %404, dims = [] : (tensor<f32>) -> tensor<f32> loc(#loc287)
    %406 = "stablehlo.reduce_window"(%403, %405) ({
    ^bb0(%arg1: tensor<f32> loc(unknown), %arg2: tensor<f32> loc(unknown)):
      %422 = stablehlo.add %arg1, %arg2 : tensor<f32> loc(#loc287)
      stablehlo.return %422 : tensor<f32> loc(#loc287)
    }) {base_dilations = dense<1> : tensor<4xi64>, padding = dense<0> : tensor<4x2xi64>, window_dilations = dense<1> : tensor<4xi64>, window_dimensions = dense<[1, 2, 2, 1]> : tensor<4xi64>, window_strides = dense<[1, 2, 2, 1]> : tensor<4xi64>} : (tensor<32x32x32x64xf32>, tensor<f32>) -> tensor<32x16x16x64xf32> loc(#loc287)
    %407 = stablehlo.constant dense<4> : tensor<i32> loc(#loc)
    %408 = stablehlo.convert %407 : (tensor<i32>) -> tensor<f32> loc(#loc288)
    %409 = stablehlo.broadcast_in_dim %408, dims = [] : (tensor<f32>) -> tensor<32x16x16x64xf32> loc(#loc289)
    %410 = stablehlo.divide %406, %409 : tensor<32x16x16x64xf32> loc(#loc289)
    %411 = stablehlo.reshape %410 : (tensor<32x16x16x64xf32>) -> tensor<32x16384xf32> loc(#loc294)
    %412 = stablehlo.dot_general %411, %290, contracting_dims = [1] x [0], precision = [DEFAULT, DEFAULT] : (tensor<32x16384xf32>, tensor<16384x256xf32>) -> tensor<32x256xf32> loc(#loc295)
    %413 = stablehlo.reshape %292 : (tensor<256xf32>) -> tensor<1x256xf32> loc(#loc296)
    %414 = stablehlo.broadcast_in_dim %413, dims = [0, 1] : (tensor<1x256xf32>) -> tensor<32x256xf32> loc(#loc297)
    %415 = stablehlo.add %412, %414 : tensor<32x256xf32> loc(#loc297)
    %416 = call @relu_4(%415) : (tensor<32x256xf32>) -> tensor<32x256xf32> loc(#loc298)
    %417 = stablehlo.dot_general %416, %384, contracting_dims = [1] x [0], precision = [DEFAULT, DEFAULT] : (tensor<32x256xf32>, tensor<256x10xf32>) -> tensor<32x10xf32> loc(#loc299)
    %418 = stablehlo.reshape %386 : (tensor<10xf32>) -> tensor<1x10xf32> loc(#loc300)
    %419 = stablehlo.broadcast_in_dim %418, dims = [0, 1] : (tensor<1x10xf32>) -> tensor<32x10xf32> loc(#loc301)
    %420 = stablehlo.add %417, %419 : tensor<32x10xf32> loc(#loc301)
    %421 = call @log_softmax(%420) : (tensor<32x10xf32>) -> tensor<32x10xf32> loc(#loc302)
    return %421 : tensor<32x10xf32> loc(#loc)
  } loc(#loc)
  func.func private @clip(%arg0: tensor<3x3x10x32xf32> loc(unknown), %arg1: tensor<f32> loc(unknown), %arg2: tensor<f32> loc(unknown)) -> tensor<3x3x10x32xf32> {
    %0 = stablehlo.broadcast_in_dim %arg1, dims = [] : (tensor<f32>) -> tensor<3x3x10x32xf32> loc(#loc303)
    %1 = stablehlo.maximum %0, %arg0 : tensor<3x3x10x32xf32> loc(#loc303)
    %2 = stablehlo.broadcast_in_dim %arg2, dims = [] : (tensor<f32>) -> tensor<3x3x10x32xf32> loc(#loc304)
    %3 = stablehlo.minimum %2, %1 : tensor<3x3x10x32xf32> loc(#loc304)
    return %3 : tensor<3x3x10x32xf32> loc(#loc86)
  } loc(#loc86)
  func.func private @clip_0(%arg0: tensor<3x3x32x64xf32> loc(unknown), %arg1: tensor<f32> loc(unknown), %arg2: tensor<f32> loc(unknown)) -> tensor<3x3x32x64xf32> {
    %0 = stablehlo.broadcast_in_dim %arg1, dims = [] : (tensor<f32>) -> tensor<3x3x32x64xf32> loc(#loc305)
    %1 = stablehlo.maximum %0, %arg0 : tensor<3x3x32x64xf32> loc(#loc305)
    %2 = stablehlo.broadcast_in_dim %arg2, dims = [] : (tensor<f32>) -> tensor<3x3x32x64xf32> loc(#loc306)
    %3 = stablehlo.minimum %2, %1 : tensor<3x3x32x64xf32> loc(#loc306)
    return %3 : tensor<3x3x32x64xf32> loc(#loc151)
  } loc(#loc151)
  func.func private @clip_1(%arg0: tensor<16384x256xf32> loc(unknown), %arg1: tensor<f32> loc(unknown), %arg2: tensor<f32> loc(unknown)) -> tensor<16384x256xf32> {
    %0 = stablehlo.broadcast_in_dim %arg1, dims = [] : (tensor<f32>) -> tensor<16384x256xf32> loc(#loc307)
    %1 = stablehlo.maximum %0, %arg0 : tensor<16384x256xf32> loc(#loc307)
    %2 = stablehlo.broadcast_in_dim %arg2, dims = [] : (tensor<f32>) -> tensor<16384x256xf32> loc(#loc308)
    %3 = stablehlo.minimum %2, %1 : tensor<16384x256xf32> loc(#loc308)
    return %3 : tensor<16384x256xf32> loc(#loc216)
  } loc(#loc216)
  func.func private @clip_2(%arg0: tensor<256x10xf32> loc(unknown), %arg1: tensor<f32> loc(unknown), %arg2: tensor<f32> loc(unknown)) -> tensor<256x10xf32> {
    %0 = stablehlo.broadcast_in_dim %arg1, dims = [] : (tensor<f32>) -> tensor<256x10xf32> loc(#loc309)
    %1 = stablehlo.maximum %0, %arg0 : tensor<256x10xf32> loc(#loc309)
    %2 = stablehlo.broadcast_in_dim %arg2, dims = [] : (tensor<f32>) -> tensor<256x10xf32> loc(#loc310)
    %3 = stablehlo.minimum %2, %1 : tensor<256x10xf32> loc(#loc310)
    return %3 : tensor<256x10xf32> loc(#loc281)
  } loc(#loc281)
  func.func private @relu(%arg0: tensor<32x64x64x32xf32> loc(unknown)) -> tensor<32x64x64x32xf32> {
    %0 = stablehlo.constant dense<0.000000e+00> : tensor<f32> loc(#loc286)
    %1 = stablehlo.broadcast_in_dim %0, dims = [] : (tensor<f32>) -> tensor<32x64x64x32xf32> loc(#loc311)
    %2 = stablehlo.maximum %arg0, %1 : tensor<32x64x64x32xf32> loc(#loc311)
    return %2 : tensor<32x64x64x32xf32> loc(#loc286)
  } loc(#loc286)
  func.func private @relu_3(%arg0: tensor<32x32x32x64xf32> loc(unknown)) -> tensor<32x32x32x64xf32> {
    %0 = stablehlo.constant dense<0.000000e+00> : tensor<f32> loc(#loc293)
    %1 = stablehlo.broadcast_in_dim %0, dims = [] : (tensor<f32>) -> tensor<32x32x32x64xf32> loc(#loc312)
    %2 = stablehlo.maximum %arg0, %1 : tensor<32x32x32x64xf32> loc(#loc312)
    return %2 : tensor<32x32x32x64xf32> loc(#loc293)
  } loc(#loc293)
  func.func private @relu_4(%arg0: tensor<32x256xf32> loc(unknown)) -> tensor<32x256xf32> {
    %0 = stablehlo.constant dense<0.000000e+00> : tensor<f32> loc(#loc298)
    %1 = stablehlo.broadcast_in_dim %0, dims = [] : (tensor<f32>) -> tensor<32x256xf32> loc(#loc313)
    %2 = stablehlo.maximum %arg0, %1 : tensor<32x256xf32> loc(#loc313)
    return %2 : tensor<32x256xf32> loc(#loc298)
  } loc(#loc298)
  func.func private @log_softmax(%arg0: tensor<32x10xf32> loc(unknown)) -> tensor<32x10xf32> {
    %0 = stablehlo.constant dense<0xFF800000> : tensor<f32> loc(#loc314)
    %1 = stablehlo.reduce(%arg0 init: %0) across dimensions = [1] : (tensor<32x10xf32>, tensor<f32>) -> tensor<32xf32>
     reducer(%arg1: tensor<f32> loc(unknown), %arg2: tensor<f32> loc(unknown))  {
      %12 = stablehlo.maximum %arg1, %arg2 : tensor<f32> loc(#loc314)
      stablehlo.return %12 : tensor<f32> loc(#loc314)
    } loc(#loc314)
    %2 = stablehlo.broadcast_in_dim %1, dims = [0] : (tensor<32xf32>) -> tensor<32x1xf32> loc(#loc315)
    %3 = stablehlo.broadcast_in_dim %2, dims = [0, 1] : (tensor<32x1xf32>) -> tensor<32x10xf32> loc(#loc316)
    %4 = stablehlo.subtract %arg0, %3 : tensor<32x10xf32> loc(#loc316)
    %5 = stablehlo.exponential %4 : tensor<32x10xf32> loc(#loc317)
    %6 = stablehlo.constant dense<0.000000e+00> : tensor<f32> loc(#loc318)
    %7 = stablehlo.reduce(%5 init: %6) across dimensions = [1] : (tensor<32x10xf32>, tensor<f32>) -> tensor<32xf32>
     reducer(%arg1: tensor<f32> loc(unknown), %arg2: tensor<f32> loc(unknown))  {
      %12 = stablehlo.add %arg1, %arg2 : tensor<f32> loc(#loc318)
      stablehlo.return %12 : tensor<f32> loc(#loc318)
    } loc(#loc318)
    %8 = stablehlo.broadcast_in_dim %7, dims = [0] : (tensor<32xf32>) -> tensor<32x1xf32> loc(#loc315)
    %9 = stablehlo.log %8 : tensor<32x1xf32> loc(#loc319)
    %10 = stablehlo.broadcast_in_dim %9, dims = [0, 1] : (tensor<32x1xf32>) -> tensor<32x10xf32> loc(#loc316)
    %11 = stablehlo.subtract %4, %10 : tensor<32x10xf32> loc(#loc316)
    return %11 : tensor<32x10xf32> loc(#loc302)
  } loc(#loc302)
} loc(#loc)
#loc1 = loc("/usr/local/google/home/scotttodd/code/scratch/iree/jax/jax_cnn.py":31:0)
#loc2 = loc("/usr/local/google/home/scotttodd/code/scratch/iree/jax/.venv/lib/python3.10/site-packages/flax/core/scope.py":153:0)
#loc3 = loc("/usr/local/google/home/scotttodd/code/scratch/iree/jax/.venv/lib/python3.10/site-packages/flax/core/scope.py":842:0)
#loc4 = loc("/usr/local/google/home/scotttodd/code/scratch/iree/jax/.venv/lib/python3.10/site-packages/flax/linen/linear.py":449:0)
#loc5 = loc("/usr/local/google/home/scotttodd/code/scratch/iree/jax/.venv/lib/python3.10/site-packages/flax/linen/linear.py":474:0)
#loc6 = loc("/usr/local/google/home/scotttodd/code/scratch/iree/jax/.venv/lib/python3.10/site-packages/flax/linen/linear.py":475:0)
#loc7 = loc("/usr/local/google/home/scotttodd/code/scratch/iree/jax/jax_cnn.py":9:0)
#loc8 = loc("/usr/local/google/home/scotttodd/code/scratch/iree/jax/.venv/lib/python3.10/site-packages/flax/linen/pooling.py":69:0)
#loc9 = loc("/usr/local/google/home/scotttodd/code/scratch/iree/jax/.venv/lib/python3.10/site-packages/flax/linen/pooling.py":93:0)
#loc10 = loc("/usr/local/google/home/scotttodd/code/scratch/iree/jax/jax_cnn.py":12:0)
#loc11 = loc("/usr/local/google/home/scotttodd/code/scratch/iree/jax/jax_cnn.py":14:0)
#loc12 = loc("/usr/local/google/home/scotttodd/code/scratch/iree/jax/.venv/lib/python3.10/site-packages/flax/linen/linear.py":206:0)
#loc13 = loc("/usr/local/google/home/scotttodd/code/scratch/iree/jax/.venv/lib/python3.10/site-packages/flax/linen/linear.py":213:0)
#loc14 = loc("/usr/local/google/home/scotttodd/code/scratch/iree/jax/jax_cnn.py":16:0)
#loc15 = loc("/usr/local/google/home/scotttodd/code/scratch/iree/jax/jax_cnn.py":18:0)
#loc16 = loc("jit(run_cnn)/jit(main)/random_seed[impl=fry]"(#loc1))
#loc17 = loc("jit(run_cnn)/jit(main)/shift_right_logical"(#loc1))
#loc18 = loc("jit(run_cnn)/jit(main)/convert_element_type[new_dtype=uint32 weak_type=False]"(#loc1))
#loc19 = loc("jit(run_cnn)/jit(main)/reshape[new_sizes=(1,) dimensions=None]"(#loc1))
#loc20 = loc("jit(run_cnn)/jit(main)/convert_element_type[new_dtype=int32 weak_type=False]"(#loc1))
#loc21 = loc("jit(run_cnn)/jit(main)/and"(#loc1))
#loc22 = loc("jit(run_cnn)/jit(main)/concatenate[dimension=0]"(#loc1))
#loc23 = loc("jit(run_cnn)/jit(main)/CNN/Conv_0/random_fold_in"(#loc2))
#loc24 = loc("jit(run_cnn)/jit(main)/CNN/Conv_0/shift_right_logical"(#loc2))
#loc25 = loc("jit(run_cnn)/jit(main)/CNN/Conv_0/reshape[new_sizes=(1,) dimensions=None]"(#loc2))
#loc26 = loc("jit(run_cnn)/jit(main)/CNN/Conv_0/and"(#loc2))
#loc27 = loc("jit(run_cnn)/jit(main)/CNN/Conv_0/concatenate[dimension=0]"(#loc2))
#loc28 = loc("jit(run_cnn)/jit(main)/CNN/Conv_0/slice[start_indices=(0,) limit_indices=(1,) strides=(1,)]"(#loc2))
#loc29 = loc("jit(run_cnn)/jit(main)/CNN/Conv_0/squeeze[dimensions=(0,)]"(#loc2))
#loc30 = loc("jit(run_cnn)/jit(main)/CNN/Conv_0/slice[start_indices=(1,) limit_indices=(2,) strides=(1,)]"(#loc2))
#loc31 = loc("jit(run_cnn)/jit(main)/CNN/Conv_0/slice[start_indices=(0,) limit_indices=(1,) strides=None]"(#loc2))
#loc32 = loc("jit(run_cnn)/jit(main)/CNN/Conv_0/slice[start_indices=(1,) limit_indices=(2,) strides=None]"(#loc2))
#loc33 = loc("jit(run_cnn)/jit(main)/CNN/Conv_0/threefry2x32"(#loc2))
#loc34 = loc("jit(run_cnn)/jit(main)/CNN/Conv_0/xor"(#loc2))
#loc35 = loc("jit(run_cnn)/jit(main)/CNN/Conv_0/add"(#loc2))
#loc36 = loc("jit(run_cnn)/jit(main)/CNN/Conv_0/scan[reverse=False length=5 num_consts=0 num_carry=8 linear=(False, False, False, False, False, False, False, False) unroll=1]"(#loc2))
#loc37 = loc("jit(run_cnn)/jit(main)/CNN/Conv_0/while[cond_nconsts=0 body_nconsts=0]"(#loc2))
#loc38 = loc("jit(run_cnn)/jit(main)/CNN/Conv_0/while/cond/lt"(#loc2))
#loc39 = loc("jit(run_cnn)/jit(main)/CNN/Conv_0/while/body/add"(#loc2))
#loc40 = loc("jit(run_cnn)/jit(main)/CNN/Conv_0/while/body/slice[start_indices=(0,) limit_indices=(1,) strides=(1,)]"(#loc2))
#loc41 = loc("jit(run_cnn)/jit(main)/CNN/Conv_0/while/body/squeeze[dimensions=(0,)]"(#loc2))
#loc42 = loc("jit(run_cnn)/jit(main)/CNN/Conv_0/while/body/shift_left"(#loc2))
#loc43 = loc("jit(run_cnn)/jit(main)/CNN/Conv_0/while/body/sub"(#loc2))
#loc44 = loc("jit(run_cnn)/jit(main)/CNN/Conv_0/while/body/shift_right_logical"(#loc2))
#loc45 = loc("jit(run_cnn)/jit(main)/CNN/Conv_0/while/body/or"(#loc2))
#loc46 = loc("jit(run_cnn)/jit(main)/CNN/Conv_0/while/body/xor"(#loc2))
#loc47 = loc("jit(run_cnn)/jit(main)/CNN/Conv_0/while/body/slice[start_indices=(1,) limit_indices=(2,) strides=(1,)]"(#loc2))
#loc48 = loc("jit(run_cnn)/jit(main)/CNN/Conv_0/while/body/slice[start_indices=(2,) limit_indices=(3,) strides=(1,)]"(#loc2))
#loc49 = loc("jit(run_cnn)/jit(main)/CNN/Conv_0/while/body/slice[start_indices=(3,) limit_indices=(4,) strides=(1,)]"(#loc2))
#loc50 = loc("jit(run_cnn)/jit(main)/CNN/Conv_0/while/body/convert_element_type[new_dtype=uint32 weak_type=False]"(#loc2))
#loc51 = loc("jit(run_cnn)/jit(main)/CNN/Conv_0/sqrt"(#loc3))
#loc52 = loc("jit(run_cnn)/jit(main)/CNN/Conv_0/div"(#loc3))
#loc53 = loc("jit(run_cnn)/jit(main)/CNN/Conv_0/erf"(#loc3))
#loc54 = loc("jit(run_cnn)/jit(main)/CNN/Conv_0/broadcast_in_dim[shape=(1, 1, 1, 1) broadcast_dimensions=()]"(#loc3))
#loc55 = loc("jit(run_cnn)/jit(main)/CNN/Conv_0/iota[dtype=uint32 shape=(2880,) dimension=0]"(#loc3))
#loc56 = loc("jit(run_cnn)/jit(main)/CNN/Conv_0/slice[start_indices=(0,) limit_indices=(1,) strides=(1,)]"(#loc3))
#loc57 = loc("jit(run_cnn)/jit(main)/CNN/Conv_0/squeeze[dimensions=(0,)]"(#loc3))
#loc58 = loc("jit(run_cnn)/jit(main)/CNN/Conv_0/slice[start_indices=(1,) limit_indices=(2,) strides=(1,)]"(#loc3))
#loc59 = loc("jit(run_cnn)/jit(main)/CNN/Conv_0/slice[start_indices=(0,) limit_indices=(1440,) strides=None]"(#loc3))
#loc60 = loc("jit(run_cnn)/jit(main)/CNN/Conv_0/slice[start_indices=(1440,) limit_indices=(2880,) strides=None]"(#loc3))
#loc61 = loc("jit(run_cnn)/jit(main)/CNN/Conv_0/threefry2x32"(#loc3))
#loc62 = loc("jit(run_cnn)/jit(main)/CNN/Conv_0/add"(#loc3))
#loc63 = loc("jit(run_cnn)/jit(main)/CNN/Conv_0/scan[reverse=False length=5 num_consts=0 num_carry=8 linear=(False, False, False, False, False, False, False, False) unroll=1]"(#loc3))
#loc64 = loc("jit(run_cnn)/jit(main)/CNN/Conv_0/while[cond_nconsts=0 body_nconsts=0]"(#loc3))
#loc65 = loc("jit(run_cnn)/jit(main)/CNN/Conv_0/while/body/slice[start_indices=(0,) limit_indices=(1,) strides=(1,)]"(#loc3))
#loc66 = loc("jit(run_cnn)/jit(main)/CNN/Conv_0/while/body/squeeze[dimensions=(0,)]"(#loc3))
#loc67 = loc("jit(run_cnn)/jit(main)/CNN/Conv_0/while/body/add"(#loc3))
#loc68 = loc("jit(run_cnn)/jit(main)/CNN/Conv_0/while/body/shift_left"(#loc3))
#loc69 = loc("jit(run_cnn)/jit(main)/CNN/Conv_0/while/body/shift_right_logical"(#loc3))
#loc70 = loc("jit(run_cnn)/jit(main)/CNN/Conv_0/while/body/or"(#loc3))
#loc71 = loc("jit(run_cnn)/jit(main)/CNN/Conv_0/while/body/xor"(#loc3))
#loc72 = loc("jit(run_cnn)/jit(main)/CNN/Conv_0/while/body/slice[start_indices=(1,) limit_indices=(2,) strides=(1,)]"(#loc3))
#loc73 = loc("jit(run_cnn)/jit(main)/CNN/Conv_0/while/body/slice[start_indices=(2,) limit_indices=(3,) strides=(1,)]"(#loc3))
#loc74 = loc("jit(run_cnn)/jit(main)/CNN/Conv_0/while/body/slice[start_indices=(3,) limit_indices=(4,) strides=(1,)]"(#loc3))
#loc75 = loc("jit(run_cnn)/jit(main)/CNN/Conv_0/while/body/convert_element_type[new_dtype=uint32 weak_type=False]"(#loc3))
#loc76 = loc("jit(run_cnn)/jit(main)/CNN/Conv_0/concatenate[dimension=0]"(#loc3))
#loc77 = loc("jit(run_cnn)/jit(main)/CNN/Conv_0/reshape[new_sizes=(3, 3, 10, 32) dimensions=None]"(#loc3))
#loc78 = loc("jit(run_cnn)/jit(main)/CNN/Conv_0/shift_right_logical"(#loc3))
#loc79 = loc("jit(run_cnn)/jit(main)/CNN/Conv_0/or"(#loc3))
#loc80 = loc("jit(run_cnn)/jit(main)/CNN/Conv_0/bitcast_convert_type[new_dtype=float32]"(#loc3))
#loc81 = loc("jit(run_cnn)/jit(main)/CNN/Conv_0/sub"(#loc3))
#loc82 = loc("jit(run_cnn)/jit(main)/CNN/Conv_0/mul"(#loc3))
#loc83 = loc("jit(run_cnn)/jit(main)/CNN/Conv_0/max"(#loc3))
#loc84 = loc("jit(run_cnn)/jit(main)/CNN/Conv_0/erf_inv"(#loc3))
#loc85 = loc("jit(run_cnn)/jit(main)/CNN/Conv_0/nextafter"(#loc3))
#loc86 = loc("jit(run_cnn)/jit(main)/CNN/Conv_0/pjit[in_shardings=(UnspecifiedValue, UnspecifiedValue, UnspecifiedValue) out_shardings=(UnspecifiedValue,) resource_env=None donated_invars=(False, False, False) name=clip keep_unused=False inline=False]"(#loc3))
#loc87 = loc("jit(run_cnn)/jit(main)/CNN/Conv_0/broadcast_in_dim[shape=(32,) broadcast_dimensions=()]"(#loc3))
#loc88 = loc("jit(run_cnn)/jit(main)/CNN/Conv_1/random_fold_in"(#loc2))
#loc89 = loc("jit(run_cnn)/jit(main)/CNN/Conv_1/shift_right_logical"(#loc2))
#loc90 = loc("jit(run_cnn)/jit(main)/CNN/Conv_1/reshape[new_sizes=(1,) dimensions=None]"(#loc2))
#loc91 = loc("jit(run_cnn)/jit(main)/CNN/Conv_1/and"(#loc2))
#loc92 = loc("jit(run_cnn)/jit(main)/CNN/Conv_1/concatenate[dimension=0]"(#loc2))
#loc93 = loc("jit(run_cnn)/jit(main)/CNN/Conv_1/slice[start_indices=(0,) limit_indices=(1,) strides=(1,)]"(#loc2))
#loc94 = loc("jit(run_cnn)/jit(main)/CNN/Conv_1/squeeze[dimensions=(0,)]"(#loc2))
#loc95 = loc("jit(run_cnn)/jit(main)/CNN/Conv_1/slice[start_indices=(1,) limit_indices=(2,) strides=(1,)]"(#loc2))
#loc96 = loc("jit(run_cnn)/jit(main)/CNN/Conv_1/slice[start_indices=(0,) limit_indices=(1,) strides=None]"(#loc2))
#loc97 = loc("jit(run_cnn)/jit(main)/CNN/Conv_1/slice[start_indices=(1,) limit_indices=(2,) strides=None]"(#loc2))
#loc98 = loc("jit(run_cnn)/jit(main)/CNN/Conv_1/threefry2x32"(#loc2))
#loc99 = loc("jit(run_cnn)/jit(main)/CNN/Conv_1/xor"(#loc2))
#loc100 = loc("jit(run_cnn)/jit(main)/CNN/Conv_1/add"(#loc2))
#loc101 = loc("jit(run_cnn)/jit(main)/CNN/Conv_1/scan[reverse=False length=5 num_consts=0 num_carry=8 linear=(False, False, False, False, False, False, False, False) unroll=1]"(#loc2))
#loc102 = loc("jit(run_cnn)/jit(main)/CNN/Conv_1/while[cond_nconsts=0 body_nconsts=0]"(#loc2))
#loc103 = loc("jit(run_cnn)/jit(main)/CNN/Conv_1/while/cond/lt"(#loc2))
#loc104 = loc("jit(run_cnn)/jit(main)/CNN/Conv_1/while/body/add"(#loc2))
#loc105 = loc("jit(run_cnn)/jit(main)/CNN/Conv_1/while/body/slice[start_indices=(0,) limit_indices=(1,) strides=(1,)]"(#loc2))
#loc106 = loc("jit(run_cnn)/jit(main)/CNN/Conv_1/while/body/squeeze[dimensions=(0,)]"(#loc2))
#loc107 = loc("jit(run_cnn)/jit(main)/CNN/Conv_1/while/body/shift_left"(#loc2))
#loc108 = loc("jit(run_cnn)/jit(main)/CNN/Conv_1/while/body/sub"(#loc2))
#loc109 = loc("jit(run_cnn)/jit(main)/CNN/Conv_1/while/body/shift_right_logical"(#loc2))
#loc110 = loc("jit(run_cnn)/jit(main)/CNN/Conv_1/while/body/or"(#loc2))
#loc111 = loc("jit(run_cnn)/jit(main)/CNN/Conv_1/while/body/xor"(#loc2))
#loc112 = loc("jit(run_cnn)/jit(main)/CNN/Conv_1/while/body/slice[start_indices=(1,) limit_indices=(2,) strides=(1,)]"(#loc2))
#loc113 = loc("jit(run_cnn)/jit(main)/CNN/Conv_1/while/body/slice[start_indices=(2,) limit_indices=(3,) strides=(1,)]"(#loc2))
#loc114 = loc("jit(run_cnn)/jit(main)/CNN/Conv_1/while/body/slice[start_indices=(3,) limit_indices=(4,) strides=(1,)]"(#loc2))
#loc115 = loc("jit(run_cnn)/jit(main)/CNN/Conv_1/while/body/convert_element_type[new_dtype=uint32 weak_type=False]"(#loc2))
#loc116 = loc("jit(run_cnn)/jit(main)/CNN/Conv_1/sqrt"(#loc3))
#loc117 = loc("jit(run_cnn)/jit(main)/CNN/Conv_1/div"(#loc3))
#loc118 = loc("jit(run_cnn)/jit(main)/CNN/Conv_1/erf"(#loc3))
#loc119 = loc("jit(run_cnn)/jit(main)/CNN/Conv_1/broadcast_in_dim[shape=(1, 1, 1, 1) broadcast_dimensions=()]"(#loc3))
#loc120 = loc("jit(run_cnn)/jit(main)/CNN/Conv_1/iota[dtype=uint32 shape=(18432,) dimension=0]"(#loc3))
#loc121 = loc("jit(run_cnn)/jit(main)/CNN/Conv_1/slice[start_indices=(0,) limit_indices=(1,) strides=(1,)]"(#loc3))
#loc122 = loc("jit(run_cnn)/jit(main)/CNN/Conv_1/squeeze[dimensions=(0,)]"(#loc3))
#loc123 = loc("jit(run_cnn)/jit(main)/CNN/Conv_1/slice[start_indices=(1,) limit_indices=(2,) strides=(1,)]"(#loc3))
#loc124 = loc("jit(run_cnn)/jit(main)/CNN/Conv_1/slice[start_indices=(0,) limit_indices=(9216,) strides=None]"(#loc3))
#loc125 = loc("jit(run_cnn)/jit(main)/CNN/Conv_1/slice[start_indices=(9216,) limit_indices=(18432,) strides=None]"(#loc3))
#loc126 = loc("jit(run_cnn)/jit(main)/CNN/Conv_1/threefry2x32"(#loc3))
#loc127 = loc("jit(run_cnn)/jit(main)/CNN/Conv_1/add"(#loc3))
#loc128 = loc("jit(run_cnn)/jit(main)/CNN/Conv_1/scan[reverse=False length=5 num_consts=0 num_carry=8 linear=(False, False, False, False, False, False, False, False) unroll=1]"(#loc3))
#loc129 = loc("jit(run_cnn)/jit(main)/CNN/Conv_1/while[cond_nconsts=0 body_nconsts=0]"(#loc3))
#loc130 = loc("jit(run_cnn)/jit(main)/CNN/Conv_1/while/body/slice[start_indices=(0,) limit_indices=(1,) strides=(1,)]"(#loc3))
#loc131 = loc("jit(run_cnn)/jit(main)/CNN/Conv_1/while/body/squeeze[dimensions=(0,)]"(#loc3))
#loc132 = loc("jit(run_cnn)/jit(main)/CNN/Conv_1/while/body/add"(#loc3))
#loc133 = loc("jit(run_cnn)/jit(main)/CNN/Conv_1/while/body/shift_left"(#loc3))
#loc134 = loc("jit(run_cnn)/jit(main)/CNN/Conv_1/while/body/shift_right_logical"(#loc3))
#loc135 = loc("jit(run_cnn)/jit(main)/CNN/Conv_1/while/body/or"(#loc3))
#loc136 = loc("jit(run_cnn)/jit(main)/CNN/Conv_1/while/body/xor"(#loc3))
#loc137 = loc("jit(run_cnn)/jit(main)/CNN/Conv_1/while/body/slice[start_indices=(1,) limit_indices=(2,) strides=(1,)]"(#loc3))
#loc138 = loc("jit(run_cnn)/jit(main)/CNN/Conv_1/while/body/slice[start_indices=(2,) limit_indices=(3,) strides=(1,)]"(#loc3))
#loc139 = loc("jit(run_cnn)/jit(main)/CNN/Conv_1/while/body/slice[start_indices=(3,) limit_indices=(4,) strides=(1,)]"(#loc3))
#loc140 = loc("jit(run_cnn)/jit(main)/CNN/Conv_1/while/body/convert_element_type[new_dtype=uint32 weak_type=False]"(#loc3))
#loc141 = loc("jit(run_cnn)/jit(main)/CNN/Conv_1/concatenate[dimension=0]"(#loc3))
#loc142 = loc("jit(run_cnn)/jit(main)/CNN/Conv_1/reshape[new_sizes=(3, 3, 32, 64) dimensions=None]"(#loc3))
#loc143 = loc("jit(run_cnn)/jit(main)/CNN/Conv_1/shift_right_logical"(#loc3))
#loc144 = loc("jit(run_cnn)/jit(main)/CNN/Conv_1/or"(#loc3))
#loc145 = loc("jit(run_cnn)/jit(main)/CNN/Conv_1/bitcast_convert_type[new_dtype=float32]"(#loc3))
#loc146 = loc("jit(run_cnn)/jit(main)/CNN/Conv_1/sub"(#loc3))
#loc147 = loc("jit(run_cnn)/jit(main)/CNN/Conv_1/mul"(#loc3))
#loc148 = loc("jit(run_cnn)/jit(main)/CNN/Conv_1/max"(#loc3))
#loc149 = loc("jit(run_cnn)/jit(main)/CNN/Conv_1/erf_inv"(#loc3))
#loc150 = loc("jit(run_cnn)/jit(main)/CNN/Conv_1/nextafter"(#loc3))
#loc151 = loc("jit(run_cnn)/jit(main)/CNN/Conv_1/pjit[in_shardings=(UnspecifiedValue, UnspecifiedValue, UnspecifiedValue) out_shardings=(UnspecifiedValue,) resource_env=None donated_invars=(False, False, False) name=clip keep_unused=False inline=False]"(#loc3))
#loc152 = loc("jit(run_cnn)/jit(main)/CNN/Conv_1/broadcast_in_dim[shape=(64,) broadcast_dimensions=()]"(#loc3))
#loc153 = loc("jit(run_cnn)/jit(main)/CNN/Dense_0/random_fold_in"(#loc2))
#loc154 = loc("jit(run_cnn)/jit(main)/CNN/Dense_0/shift_right_logical"(#loc2))
#loc155 = loc("jit(run_cnn)/jit(main)/CNN/Dense_0/reshape[new_sizes=(1,) dimensions=None]"(#loc2))
#loc156 = loc("jit(run_cnn)/jit(main)/CNN/Dense_0/and"(#loc2))
#loc157 = loc("jit(run_cnn)/jit(main)/CNN/Dense_0/concatenate[dimension=0]"(#loc2))
#loc158 = loc("jit(run_cnn)/jit(main)/CNN/Dense_0/slice[start_indices=(0,) limit_indices=(1,) strides=(1,)]"(#loc2))
#loc159 = loc("jit(run_cnn)/jit(main)/CNN/Dense_0/squeeze[dimensions=(0,)]"(#loc2))
#loc160 = loc("jit(run_cnn)/jit(main)/CNN/Dense_0/slice[start_indices=(1,) limit_indices=(2,) strides=(1,)]"(#loc2))
#loc161 = loc("jit(run_cnn)/jit(main)/CNN/Dense_0/slice[start_indices=(0,) limit_indices=(1,) strides=None]"(#loc2))
#loc162 = loc("jit(run_cnn)/jit(main)/CNN/Dense_0/slice[start_indices=(1,) limit_indices=(2,) strides=None]"(#loc2))
#loc163 = loc("jit(run_cnn)/jit(main)/CNN/Dense_0/threefry2x32"(#loc2))
#loc164 = loc("jit(run_cnn)/jit(main)/CNN/Dense_0/xor"(#loc2))
#loc165 = loc("jit(run_cnn)/jit(main)/CNN/Dense_0/add"(#loc2))
#loc166 = loc("jit(run_cnn)/jit(main)/CNN/Dense_0/scan[reverse=False length=5 num_consts=0 num_carry=8 linear=(False, False, False, False, False, False, False, False) unroll=1]"(#loc2))
#loc167 = loc("jit(run_cnn)/jit(main)/CNN/Dense_0/while[cond_nconsts=0 body_nconsts=0]"(#loc2))
#loc168 = loc("jit(run_cnn)/jit(main)/CNN/Dense_0/while/cond/lt"(#loc2))
#loc169 = loc("jit(run_cnn)/jit(main)/CNN/Dense_0/while/body/add"(#loc2))
#loc170 = loc("jit(run_cnn)/jit(main)/CNN/Dense_0/while/body/slice[start_indices=(0,) limit_indices=(1,) strides=(1,)]"(#loc2))
#loc171 = loc("jit(run_cnn)/jit(main)/CNN/Dense_0/while/body/squeeze[dimensions=(0,)]"(#loc2))
#loc172 = loc("jit(run_cnn)/jit(main)/CNN/Dense_0/while/body/shift_left"(#loc2))
#loc173 = loc("jit(run_cnn)/jit(main)/CNN/Dense_0/while/body/sub"(#loc2))
#loc174 = loc("jit(run_cnn)/jit(main)/CNN/Dense_0/while/body/shift_right_logical"(#loc2))
#loc175 = loc("jit(run_cnn)/jit(main)/CNN/Dense_0/while/body/or"(#loc2))
#loc176 = loc("jit(run_cnn)/jit(main)/CNN/Dense_0/while/body/xor"(#loc2))
#loc177 = loc("jit(run_cnn)/jit(main)/CNN/Dense_0/while/body/slice[start_indices=(1,) limit_indices=(2,) strides=(1,)]"(#loc2))
#loc178 = loc("jit(run_cnn)/jit(main)/CNN/Dense_0/while/body/slice[start_indices=(2,) limit_indices=(3,) strides=(1,)]"(#loc2))
#loc179 = loc("jit(run_cnn)/jit(main)/CNN/Dense_0/while/body/slice[start_indices=(3,) limit_indices=(4,) strides=(1,)]"(#loc2))
#loc180 = loc("jit(run_cnn)/jit(main)/CNN/Dense_0/while/body/convert_element_type[new_dtype=uint32 weak_type=False]"(#loc2))
#loc181 = loc("jit(run_cnn)/jit(main)/CNN/Dense_0/sqrt"(#loc3))
#loc182 = loc("jit(run_cnn)/jit(main)/CNN/Dense_0/div"(#loc3))
#loc183 = loc("jit(run_cnn)/jit(main)/CNN/Dense_0/erf"(#loc3))
#loc184 = loc("jit(run_cnn)/jit(main)/CNN/Dense_0/broadcast_in_dim[shape=(1, 1) broadcast_dimensions=()]"(#loc3))
#loc185 = loc("jit(run_cnn)/jit(main)/CNN/Dense_0/iota[dtype=uint32 shape=(4194304,) dimension=0]"(#loc3))
#loc186 = loc("jit(run_cnn)/jit(main)/CNN/Dense_0/slice[start_indices=(0,) limit_indices=(1,) strides=(1,)]"(#loc3))
#loc187 = loc("jit(run_cnn)/jit(main)/CNN/Dense_0/squeeze[dimensions=(0,)]"(#loc3))
#loc188 = loc("jit(run_cnn)/jit(main)/CNN/Dense_0/slice[start_indices=(1,) limit_indices=(2,) strides=(1,)]"(#loc3))
#loc189 = loc("jit(run_cnn)/jit(main)/CNN/Dense_0/slice[start_indices=(0,) limit_indices=(2097152,) strides=None]"(#loc3))
#loc190 = loc("jit(run_cnn)/jit(main)/CNN/Dense_0/slice[start_indices=(2097152,) limit_indices=(4194304,) strides=None]"(#loc3))
#loc191 = loc("jit(run_cnn)/jit(main)/CNN/Dense_0/threefry2x32"(#loc3))
#loc192 = loc("jit(run_cnn)/jit(main)/CNN/Dense_0/add"(#loc3))
#loc193 = loc("jit(run_cnn)/jit(main)/CNN/Dense_0/scan[reverse=False length=5 num_consts=0 num_carry=8 linear=(False, False, False, False, False, False, False, False) unroll=1]"(#loc3))
#loc194 = loc("jit(run_cnn)/jit(main)/CNN/Dense_0/while[cond_nconsts=0 body_nconsts=0]"(#loc3))
#loc195 = loc("jit(run_cnn)/jit(main)/CNN/Dense_0/while/body/slice[start_indices=(0,) limit_indices=(1,) strides=(1,)]"(#loc3))
#loc196 = loc("jit(run_cnn)/jit(main)/CNN/Dense_0/while/body/squeeze[dimensions=(0,)]"(#loc3))
#loc197 = loc("jit(run_cnn)/jit(main)/CNN/Dense_0/while/body/add"(#loc3))
#loc198 = loc("jit(run_cnn)/jit(main)/CNN/Dense_0/while/body/shift_left"(#loc3))
#loc199 = loc("jit(run_cnn)/jit(main)/CNN/Dense_0/while/body/shift_right_logical"(#loc3))
#loc200 = loc("jit(run_cnn)/jit(main)/CNN/Dense_0/while/body/or"(#loc3))
#loc201 = loc("jit(run_cnn)/jit(main)/CNN/Dense_0/while/body/xor"(#loc3))
#loc202 = loc("jit(run_cnn)/jit(main)/CNN/Dense_0/while/body/slice[start_indices=(1,) limit_indices=(2,) strides=(1,)]"(#loc3))
#loc203 = loc("jit(run_cnn)/jit(main)/CNN/Dense_0/while/body/slice[start_indices=(2,) limit_indices=(3,) strides=(1,)]"(#loc3))
#loc204 = loc("jit(run_cnn)/jit(main)/CNN/Dense_0/while/body/slice[start_indices=(3,) limit_indices=(4,) strides=(1,)]"(#loc3))
#loc205 = loc("jit(run_cnn)/jit(main)/CNN/Dense_0/while/body/convert_element_type[new_dtype=uint32 weak_type=False]"(#loc3))
#loc206 = loc("jit(run_cnn)/jit(main)/CNN/Dense_0/concatenate[dimension=0]"(#loc3))
#loc207 = loc("jit(run_cnn)/jit(main)/CNN/Dense_0/reshape[new_sizes=(16384, 256) dimensions=None]"(#loc3))
#loc208 = loc("jit(run_cnn)/jit(main)/CNN/Dense_0/shift_right_logical"(#loc3))
#loc209 = loc("jit(run_cnn)/jit(main)/CNN/Dense_0/or"(#loc3))
#loc210 = loc("jit(run_cnn)/jit(main)/CNN/Dense_0/bitcast_convert_type[new_dtype=float32]"(#loc3))
#loc211 = loc("jit(run_cnn)/jit(main)/CNN/Dense_0/sub"(#loc3))
#loc212 = loc("jit(run_cnn)/jit(main)/CNN/Dense_0/mul"(#loc3))
#loc213 = loc("jit(run_cnn)/jit(main)/CNN/Dense_0/max"(#loc3))
#loc214 = loc("jit(run_cnn)/jit(main)/CNN/Dense_0/erf_inv"(#loc3))
#loc215 = loc("jit(run_cnn)/jit(main)/CNN/Dense_0/nextafter"(#loc3))
#loc216 = loc("jit(run_cnn)/jit(main)/CNN/Dense_0/pjit[in_shardings=(UnspecifiedValue, UnspecifiedValue, UnspecifiedValue) out_shardings=(UnspecifiedValue,) resource_env=None donated_invars=(False, False, False) name=clip keep_unused=False inline=False]"(#loc3))
#loc217 = loc("jit(run_cnn)/jit(main)/CNN/Dense_0/broadcast_in_dim[shape=(256,) broadcast_dimensions=()]"(#loc3))
#loc218 = loc("jit(run_cnn)/jit(main)/CNN/Dense_1/random_fold_in"(#loc2))
#loc219 = loc("jit(run_cnn)/jit(main)/CNN/Dense_1/shift_right_logical"(#loc2))
#loc220 = loc("jit(run_cnn)/jit(main)/CNN/Dense_1/reshape[new_sizes=(1,) dimensions=None]"(#loc2))
#loc221 = loc("jit(run_cnn)/jit(main)/CNN/Dense_1/and"(#loc2))
#loc222 = loc("jit(run_cnn)/jit(main)/CNN/Dense_1/concatenate[dimension=0]"(#loc2))
#loc223 = loc("jit(run_cnn)/jit(main)/CNN/Dense_1/slice[start_indices=(0,) limit_indices=(1,) strides=(1,)]"(#loc2))
#loc224 = loc("jit(run_cnn)/jit(main)/CNN/Dense_1/squeeze[dimensions=(0,)]"(#loc2))
#loc225 = loc("jit(run_cnn)/jit(main)/CNN/Dense_1/slice[start_indices=(1,) limit_indices=(2,) strides=(1,)]"(#loc2))
#loc226 = loc("jit(run_cnn)/jit(main)/CNN/Dense_1/slice[start_indices=(0,) limit_indices=(1,) strides=None]"(#loc2))
#loc227 = loc("jit(run_cnn)/jit(main)/CNN/Dense_1/slice[start_indices=(1,) limit_indices=(2,) strides=None]"(#loc2))
#loc228 = loc("jit(run_cnn)/jit(main)/CNN/Dense_1/threefry2x32"(#loc2))
#loc229 = loc("jit(run_cnn)/jit(main)/CNN/Dense_1/xor"(#loc2))
#loc230 = loc("jit(run_cnn)/jit(main)/CNN/Dense_1/add"(#loc2))
#loc231 = loc("jit(run_cnn)/jit(main)/CNN/Dense_1/scan[reverse=False length=5 num_consts=0 num_carry=8 linear=(False, False, False, False, False, False, False, False) unroll=1]"(#loc2))
#loc232 = loc("jit(run_cnn)/jit(main)/CNN/Dense_1/while[cond_nconsts=0 body_nconsts=0]"(#loc2))
#loc233 = loc("jit(run_cnn)/jit(main)/CNN/Dense_1/while/cond/lt"(#loc2))
#loc234 = loc("jit(run_cnn)/jit(main)/CNN/Dense_1/while/body/add"(#loc2))
#loc235 = loc("jit(run_cnn)/jit(main)/CNN/Dense_1/while/body/slice[start_indices=(0,) limit_indices=(1,) strides=(1,)]"(#loc2))
#loc236 = loc("jit(run_cnn)/jit(main)/CNN/Dense_1/while/body/squeeze[dimensions=(0,)]"(#loc2))
#loc237 = loc("jit(run_cnn)/jit(main)/CNN/Dense_1/while/body/shift_left"(#loc2))
#loc238 = loc("jit(run_cnn)/jit(main)/CNN/Dense_1/while/body/sub"(#loc2))
#loc239 = loc("jit(run_cnn)/jit(main)/CNN/Dense_1/while/body/shift_right_logical"(#loc2))
#loc240 = loc("jit(run_cnn)/jit(main)/CNN/Dense_1/while/body/or"(#loc2))
#loc241 = loc("jit(run_cnn)/jit(main)/CNN/Dense_1/while/body/xor"(#loc2))
#loc242 = loc("jit(run_cnn)/jit(main)/CNN/Dense_1/while/body/slice[start_indices=(1,) limit_indices=(2,) strides=(1,)]"(#loc2))
#loc243 = loc("jit(run_cnn)/jit(main)/CNN/Dense_1/while/body/slice[start_indices=(2,) limit_indices=(3,) strides=(1,)]"(#loc2))
#loc244 = loc("jit(run_cnn)/jit(main)/CNN/Dense_1/while/body/slice[start_indices=(3,) limit_indices=(4,) strides=(1,)]"(#loc2))
#loc245 = loc("jit(run_cnn)/jit(main)/CNN/Dense_1/while/body/convert_element_type[new_dtype=uint32 weak_type=False]"(#loc2))
#loc246 = loc("jit(run_cnn)/jit(main)/CNN/Dense_1/sqrt"(#loc3))
#loc247 = loc("jit(run_cnn)/jit(main)/CNN/Dense_1/div"(#loc3))
#loc248 = loc("jit(run_cnn)/jit(main)/CNN/Dense_1/erf"(#loc3))
#loc249 = loc("jit(run_cnn)/jit(main)/CNN/Dense_1/broadcast_in_dim[shape=(1, 1) broadcast_dimensions=()]"(#loc3))
#loc250 = loc("jit(run_cnn)/jit(main)/CNN/Dense_1/iota[dtype=uint32 shape=(2560,) dimension=0]"(#loc3))
#loc251 = loc("jit(run_cnn)/jit(main)/CNN/Dense_1/slice[start_indices=(0,) limit_indices=(1,) strides=(1,)]"(#loc3))
#loc252 = loc("jit(run_cnn)/jit(main)/CNN/Dense_1/squeeze[dimensions=(0,)]"(#loc3))
#loc253 = loc("jit(run_cnn)/jit(main)/CNN/Dense_1/slice[start_indices=(1,) limit_indices=(2,) strides=(1,)]"(#loc3))
#loc254 = loc("jit(run_cnn)/jit(main)/CNN/Dense_1/slice[start_indices=(0,) limit_indices=(1280,) strides=None]"(#loc3))
#loc255 = loc("jit(run_cnn)/jit(main)/CNN/Dense_1/slice[start_indices=(1280,) limit_indices=(2560,) strides=None]"(#loc3))
#loc256 = loc("jit(run_cnn)/jit(main)/CNN/Dense_1/threefry2x32"(#loc3))
#loc257 = loc("jit(run_cnn)/jit(main)/CNN/Dense_1/add"(#loc3))
#loc258 = loc("jit(run_cnn)/jit(main)/CNN/Dense_1/scan[reverse=False length=5 num_consts=0 num_carry=8 linear=(False, False, False, False, False, False, False, False) unroll=1]"(#loc3))
#loc259 = loc("jit(run_cnn)/jit(main)/CNN/Dense_1/while[cond_nconsts=0 body_nconsts=0]"(#loc3))
#loc260 = loc("jit(run_cnn)/jit(main)/CNN/Dense_1/while/body/slice[start_indices=(0,) limit_indices=(1,) strides=(1,)]"(#loc3))
#loc261 = loc("jit(run_cnn)/jit(main)/CNN/Dense_1/while/body/squeeze[dimensions=(0,)]"(#loc3))
#loc262 = loc("jit(run_cnn)/jit(main)/CNN/Dense_1/while/body/add"(#loc3))
#loc263 = loc("jit(run_cnn)/jit(main)/CNN/Dense_1/while/body/shift_left"(#loc3))
#loc264 = loc("jit(run_cnn)/jit(main)/CNN/Dense_1/while/body/shift_right_logical"(#loc3))
#loc265 = loc("jit(run_cnn)/jit(main)/CNN/Dense_1/while/body/or"(#loc3))
#loc266 = loc("jit(run_cnn)/jit(main)/CNN/Dense_1/while/body/xor"(#loc3))
#loc267 = loc("jit(run_cnn)/jit(main)/CNN/Dense_1/while/body/slice[start_indices=(1,) limit_indices=(2,) strides=(1,)]"(#loc3))
#loc268 = loc("jit(run_cnn)/jit(main)/CNN/Dense_1/while/body/slice[start_indices=(2,) limit_indices=(3,) strides=(1,)]"(#loc3))
#loc269 = loc("jit(run_cnn)/jit(main)/CNN/Dense_1/while/body/slice[start_indices=(3,) limit_indices=(4,) strides=(1,)]"(#loc3))
#loc270 = loc("jit(run_cnn)/jit(main)/CNN/Dense_1/while/body/convert_element_type[new_dtype=uint32 weak_type=False]"(#loc3))
#loc271 = loc("jit(run_cnn)/jit(main)/CNN/Dense_1/concatenate[dimension=0]"(#loc3))
#loc272 = loc("jit(run_cnn)/jit(main)/CNN/Dense_1/reshape[new_sizes=(256, 10) dimensions=None]"(#loc3))
#loc273 = loc("jit(run_cnn)/jit(main)/CNN/Dense_1/shift_right_logical"(#loc3))
#loc274 = loc("jit(run_cnn)/jit(main)/CNN/Dense_1/or"(#loc3))
#loc275 = loc("jit(run_cnn)/jit(main)/CNN/Dense_1/bitcast_convert_type[new_dtype=float32]"(#loc3))
#loc276 = loc("jit(run_cnn)/jit(main)/CNN/Dense_1/sub"(#loc3))
#loc277 = loc("jit(run_cnn)/jit(main)/CNN/Dense_1/mul"(#loc3))
#loc278 = loc("jit(run_cnn)/jit(main)/CNN/Dense_1/max"(#loc3))
#loc279 = loc("jit(run_cnn)/jit(main)/CNN/Dense_1/erf_inv"(#loc3))
#loc280 = loc("jit(run_cnn)/jit(main)/CNN/Dense_1/nextafter"(#loc3))
#loc281 = loc("jit(run_cnn)/jit(main)/CNN/Dense_1/pjit[in_shardings=(UnspecifiedValue, UnspecifiedValue, UnspecifiedValue) out_shardings=(UnspecifiedValue,) resource_env=None donated_invars=(False, False, False) name=clip keep_unused=False inline=False]"(#loc3))
#loc282 = loc("jit(run_cnn)/jit(main)/CNN/Dense_1/broadcast_in_dim[shape=(10,) broadcast_dimensions=()]"(#loc3))
#loc283 = loc("jit(run_cnn)/jit(main)/CNN/Conv_0/conv_general_dilated[window_strides=(1, 1) padding=((1, 1), (1, 1)) lhs_dilation=(1, 1) rhs_dilation=(1, 1) dimension_numbers=ConvDimensionNumbers(lhs_spec=(0, 3, 1, 2), rhs_spec=(3, 2, 0, 1), out_spec=(0, 3, 1, 2)) feature_group_count=1 batch_group_count=1 precision=None preferred_element_type=None]"(#loc4))
#loc284 = loc("jit(run_cnn)/jit(main)/CNN/Conv_0/reshape[new_sizes=(1, 1, 1, 32) dimensions=None]"(#loc5))
#loc285 = loc("jit(run_cnn)/jit(main)/CNN/Conv_0/add"(#loc6))
#loc286 = loc("jit(run_cnn)/jit(main)/CNN/pjit[in_shardings=(UnspecifiedValue,) out_shardings=(UnspecifiedValue,) resource_env=None donated_invars=(False,) name=relu keep_unused=False inline=False]"(#loc7))
#loc287 = loc("jit(run_cnn)/jit(main)/CNN/reduce_window_sum[window_dimensions=(1, 2, 2, 1) window_strides=(1, 2, 2, 1) padding=((0, 0), (0, 0), (0, 0), (0, 0)) base_dilation=(1, 1, 1, 1) window_dilation=(1, 1, 1, 1)]"(#loc8))
#loc288 = loc("jit(run_cnn)/jit(main)/CNN/convert_element_type[new_dtype=float32 weak_type=False]"(#loc9))
#loc289 = loc("jit(run_cnn)/jit(main)/CNN/div"(#loc9))
#loc290 = loc("jit(run_cnn)/jit(main)/CNN/Conv_1/conv_general_dilated[window_strides=(1, 1) padding=((1, 1), (1, 1)) lhs_dilation=(1, 1) rhs_dilation=(1, 1) dimension_numbers=ConvDimensionNumbers(lhs_spec=(0, 3, 1, 2), rhs_spec=(3, 2, 0, 1), out_spec=(0, 3, 1, 2)) feature_group_count=1 batch_group_count=1 precision=None preferred_element_type=None]"(#loc4))
#loc291 = loc("jit(run_cnn)/jit(main)/CNN/Conv_1/reshape[new_sizes=(1, 1, 1, 64) dimensions=None]"(#loc5))
#loc292 = loc("jit(run_cnn)/jit(main)/CNN/Conv_1/add"(#loc6))
#loc293 = loc("jit(run_cnn)/jit(main)/CNN/pjit[in_shardings=(UnspecifiedValue,) out_shardings=(UnspecifiedValue,) resource_env=None donated_invars=(False,) name=relu keep_unused=False inline=False]"(#loc10))
#loc294 = loc("jit(run_cnn)/jit(main)/CNN/reshape[new_sizes=(32, 16384) dimensions=None]"(#loc11))
#loc295 = loc("jit(run_cnn)/jit(main)/CNN/Dense_0/dot_general[dimension_numbers=(((1,), (0,)), ((), ())) precision=None preferred_element_type=None]"(#loc12))
#loc296 = loc("jit(run_cnn)/jit(main)/CNN/Dense_0/reshape[new_sizes=(1, 256) dimensions=None]"(#loc13))
#loc297 = loc("jit(run_cnn)/jit(main)/CNN/Dense_0/add"(#loc13))
#loc298 = loc("jit(run_cnn)/jit(main)/CNN/pjit[in_shardings=(UnspecifiedValue,) out_shardings=(UnspecifiedValue,) resource_env=None donated_invars=(False,) name=relu keep_unused=False inline=False]"(#loc14))
#loc299 = loc("jit(run_cnn)/jit(main)/CNN/Dense_1/dot_general[dimension_numbers=(((1,), (0,)), ((), ())) precision=None preferred_element_type=None]"(#loc12))
#loc300 = loc("jit(run_cnn)/jit(main)/CNN/Dense_1/reshape[new_sizes=(1, 10) dimensions=None]"(#loc13))
#loc301 = loc("jit(run_cnn)/jit(main)/CNN/Dense_1/add"(#loc13))
#loc302 = loc("jit(run_cnn)/jit(main)/CNN/pjit[in_shardings=(UnspecifiedValue,) out_shardings=(UnspecifiedValue,) resource_env=None donated_invars=(False,) name=log_softmax keep_unused=False inline=False]"(#loc15))
#loc303 = loc("jit(run_cnn)/jit(main)/CNN/Conv_0/jit(clip)/max"(#loc3))
#loc304 = loc("jit(run_cnn)/jit(main)/CNN/Conv_0/jit(clip)/min"(#loc3))
#loc305 = loc("jit(run_cnn)/jit(main)/CNN/Conv_1/jit(clip)/max"(#loc3))
#loc306 = loc("jit(run_cnn)/jit(main)/CNN/Conv_1/jit(clip)/min"(#loc3))
#loc307 = loc("jit(run_cnn)/jit(main)/CNN/Dense_0/jit(clip)/max"(#loc3))
#loc308 = loc("jit(run_cnn)/jit(main)/CNN/Dense_0/jit(clip)/min"(#loc3))
#loc309 = loc("jit(run_cnn)/jit(main)/CNN/Dense_1/jit(clip)/max"(#loc3))
#loc310 = loc("jit(run_cnn)/jit(main)/CNN/Dense_1/jit(clip)/min"(#loc3))
#loc311 = loc("jit(run_cnn)/jit(main)/CNN/jit(relu)/max"(#loc7))
#loc312 = loc("jit(run_cnn)/jit(main)/CNN/jit(relu)/max"(#loc10))
#loc313 = loc("jit(run_cnn)/jit(main)/CNN/jit(relu)/max"(#loc14))
#loc314 = loc("jit(run_cnn)/jit(main)/CNN/jit(log_softmax)/reduce_max[axes=(1,)]"(#loc15))
#loc315 = loc("jit(run_cnn)/jit(main)/CNN/jit(log_softmax)/broadcast_in_dim[shape=(32, 1) broadcast_dimensions=(0,)]"(#loc15))
#loc316 = loc("jit(run_cnn)/jit(main)/CNN/jit(log_softmax)/sub"(#loc15))
#loc317 = loc("jit(run_cnn)/jit(main)/CNN/jit(log_softmax)/exp"(#loc15))
#loc318 = loc("jit(run_cnn)/jit(main)/CNN/jit(log_softmax)/reduce_sum[axes=(1,)]"(#loc15))
#loc319 = loc("jit(run_cnn)/jit(main)/CNN/jit(log_softmax)/log"(#loc15))
